models/dnn/02_26_19_53_reward_408.pt (torch_old, 1507 bytes, 6 tensors)

linear1.weight f4 [10, 4]
000000 ba 15 1c 3f 18 d7 bb be 46 94 63 bf cb ef f9 be
       0.6097065 -0.3668754 -0.8889812 -0.4881576
000010 f5 27 bf 3e fe 4a 97 bf 9a 65 d6 bf 37 5c 56 bf
       0.37335172 -1.1819761 -1.6749756 -0.8373446
000020 99 72 d7 bd 46 0a db 3e 60 24 c0 3f 87 a0 0a 3f
       -0.10519905 0.42781276 1.5011101 0.54151195
000030 8c 0c 28 be 0a 5a 07 bf e3 1e a2 be bb 4e b6 be
       -0.16411036 -0.52871764 -0.3166419 -0.35606942
000040 17 5e ad be 96 88 1f 3e 2d cb 7d 3e ba 3b dd 3e
       -0.33860847 0.15579447 0.24784537 0.4320963
000050 e1 57 50 3f 03 4b 9d be 7d 87 2b bf 0c 98 bf be
       0.8138409 -0.30721292 -0.67003614 -0.3742069
000060 ca bc 65 be 88 7c 72 3e e3 96 cc be a2 71 a5 3e
       -0.22435299 0.23680317 -0.39958867 0.32313257
000070 90 e6 8b 3e 45 bc e4 be ca 50 ee 3e 07 f8 2d bd
       0.27324343 -0.44674888 0.46546012 -0.042472865
000080 de 4b 04 3f 83 73 23 3f 85 2b 6a 3f ab d7 e4 3e
       0.51678264 0.6384813 0.91472656 0.44695792
000090 cd 22 63 be b2 9f 67 be 54 b8 cb 3d 1d 47 99 be
       -0.22181244 -0.22619513 0.09947267 -0.29937068

linear1.bias f4 [10]
000000 4a e8 98 be 7c f2 8a bf 61 59 35 bf 99 03 c3 3e
       -0.29864722 -1.085525 -0.70839506 0.38088682
000010 fe 0e 03 bd 21 5a 5a bf a0 41 c8 be 4a 1e e8 be
       -0.03199672 -0.85293776 -0.39112568 -0.4533561
000020 2e 81 16 bf 52 1b f3 be
       -0.5879086 -0.4748178

linear2.weight f4 [5, 10]
000000 c2 06 5e 3d 07 19 a5 bf a0 fd 4e bf 3e 4a 5d 3f
       0.054205664 -1.2898263 -0.8085575 0.8644141
000010 92 04 82 be 8e c3 60 bf 37 ee 6d 3e 0f 3f c9 bc
       -0.25394112 -0.8779839 0.23235403 -0.024566201
000020 49 6c 0a bf 8e a1 c3 be 30 50 6d 3e c1 97 9a be
       -0.5407148 -0.38209194 0.2317512 -0.30193904
000030 b5 e5 d0 be 96 d5 22 bf df 2a 2e 3d dc 3e e3 bd
       -0.40800253 -0.63607156 0.042521354 -0.11095974
000040 4f d9 e0 3d 18 33 c5 3d dc 08 ac be 7a eb b1 3c
       0.10978948 0.09628886 -0.3360051 0.02171873
000050 cb c1 1b bf 54 51 74 bf 9c d5 5d 3e 43 c9 e7 be
       -0.6084258 -0.95436597 0.21663517 -0.45270738
000060 fd b0 e9 3e 76 f3 cc be 7e ab 3c be a8 79 53 3e
       0.45642844 -0.40029496 -0.18424794 0.20651877
000070 ac 0c e4 be fa c3 58 3e e5 95 04 3e 6b 02 45 3f
       -0.44540918 0.21168509 0.12947805 0.76956815
000080 c4 4a b2 be 70 09 ef be b2 9b 41 bd 00 76 0c 3f
       -0.34822667 -0.46686888 -0.047267623 0.54867554
000090 f5 44 8f 3e e4 c4 59 3e de d3 89 3e 0a da 33 be
       0.27982298 0.21266514 0.26919454 -0.17563644
0000a0 fb cb f2 3c ec 2d 66 be 2d 06 02 3e d1 ce 84 3d
       0.029638281 -0.22478455 0.12697668 0.064847596
0000b0 9a f6 a6 3c 27 27 2c 3d 25 6d 18 3d b6 b4 59 be
       0.02038126 0.042029526 0.037213463 -0.21260342
0000c0 ac 03 0c bc e9 08 24 be
       -0.008545797 -0.16019024

linear2.bias f4 [5]
000000 26 47 9b 40 cc 56 d7 3f d2 1b 2b 40 9e 88 fc be
       4.852435 1.6823363 2.673573 -0.4932298
000010 f0 f1 5b be
       -0.2147901

head.weight f4 [2, 5]
000000 ca 6e 8b 40 c8 33 bd 3f 25 2c 9e 3f 32 4d 41 bf
       4.357274 1.4781427 1.2357222 -0.75508416
000010 cd 14 28 3e 69 3d 83 40 a2 3c 13 3f f2 16 0b 40
       0.16414185 4.1012464 0.57514393 2.1732755
000020 12 e1 4f bf 71 1a f1 3b
       -0.81202805 0.0073578884

head.bias f4 [2]
000000 c0 bd c6 40 9e 1c cf 40
       6.210663 6.4722433
