models/dnn/reward_760.pt (torch_old, 1507 bytes, 6 tensors)

linear1.weight f4 [10, 4]
00000000: 9424 55be 8434 443e 4640 0540 9cfe 483e
00000010: c30f 663e 9600 1dbe 1562 13be 0e44 a5be
00000020: a741 0bbf 295d 6dbe 2976 b6bd e47d 8d3d
00000030: 1b3a 483f 446a 783f 7513 af3f 19d7 353f
00000040: 1f4b 99bf 1d64 81bf 006c 5bbf 04cd 9dbf
00000050: e5fe 923f c391 9cbe afa1 58be 296d 58be
00000060: f294 e83e 47ff 38bc 14ef 2cbf 6f4b cf3c
00000070: b186 763f d62a aa3e 31cb b63d 9731 873e
00000080: 9f38 003e c381 ca3d 968c 883e 4d82 c13e
00000090: 5107 de3e 3096 023c 9546 53be b479 52bf
-0.20814735 0.19160658 2.082048 0.19628376 0.2246695 -0.15332255 -0.14392884 -0.32278484
-0.5439705 -0.23180069 -0.08909256 0.06908777 0.7821366 0.9703715 1.3677813 0.7103134
-1.197605 -1.0108677 -0.8571167 -1.2328191 1.1484038 -0.30579957 -0.21155427 -0.21135391
0.45426136 -0.011291332 -0.67552304 0.025304524 0.9629927 0.33235806 0.089254744 0.26405022
0.12521599 0.09888031 0.2666976 0.37794724 0.43364957 0.007970378 -0.20632394 -0.82216954

linear1.bias f4 [10]
00000000: f541 6ebc 050d 4a3f 8110 d0bd e2d0 0dc0
00000010: 8b0c e3bf edf0 bbbf df50 46bf 22ce 8bbf
00000020: 4f8f 023f 7e70 05bf
-0.014542093 0.78926116 -0.10159398 -2.2158742 -1.7738203 -1.46829 -0.7746715 -1.0922282
0.5099992 -0.52124774

linear2.weight f4 [5, 10]
00000000: c8cb f63e bd3b 863d 9005 01bf 2934 00be
00000010: e9f3 bebf f834 31bf 2449 86be 99ff fdbe
00000020: 5fe3 5a3f 8fbc 38bf 6f19 86bf 2129 4e3f
00000030: 8706 57be 172a 01c0 358d 0cc0 597d c8bf
00000040: 0961 67bf fc0f 4ebf 2bf8 453e d943 ef3d
00000050: 32fb 8a3f 7f6c 2cbf 8165 8abd eb81 643f
00000060: c8de 8cbd a232 cd3d 0e20 36bf 3ac1 8cbd
00000070: cab3 4b3d 7270 983e 0087 c73b 20e8 023c
00000080: ea83 e9bd 9963 973e 1ff6 5cbe e8ef a6bd
00000090: 3066 a33c 63e0 82be 8486 0ebe 58f9 8ebe
000000a0: 561a 123e 304c e1bd c3e8 84be 1b00 06bd
000000b0: 79dd 1dbe b53c 873d 73b3 073e 9d58 073e
000000c0: 0974 46be 5e82 df3d
0.48202348 0.06554363 -0.5039911 -0.12519898 -1.4918185 -0.6922145 -0.26227677 -0.49609068
0.8550319 -0.7216272 -1.0476512 0.8053151 -0.20998584 -2.018194 -2.1961186 -1.5663253
-0.9038244 -0.8049314 0.1933295 0.11682863 1.0857909 -0.6735305 -0.067576416 0.8926074
-0.0687843 0.10019423 -0.7114266 -0.068727925 0.049732007 0.2977329 0.0060890913 0.007989913
-0.11402114 0.29568174 -0.21578263 -0.08151227 0.019946188 -0.25561818 -0.13918501 -0.2792461
0.14267859 -0.1100086 -0.25958833 -0.032714944 -0.15416516 0.06603376 0.13252048 0.13217397
-0.19380201 0.109135374

linear2.bias f4 [5]
00000000: f2e2 6440 9d0e f740 b325 4dbf 7702 52be
00000010: e772 90be
3.5763516 7.720534 -0.8013565 -0.20508753 -0.28212664

head.weight f4 [2, 5]
00000000: ce32 0b40 9377 e440 8dce e4bf 4ab0 d53e
00000010: fa42 dd3e 32a2 7740 5f0a ce40 baa5 2bbf
00000020: 9c04 aebe 4456 efbc
2.1749759 7.1395965 -1.7875534 0.4173606 0.43215162 3.8692746 6.438766 -0.67049754
-0.33987892 -0.02921594

head.bias f4 [2]
00000000: 0e91 b040 452c 9040
5.517707 4.505404
