model500.pt (torch_old, 167153 bytes, 20 tensors)

conv1.weight f4 [16, 3, 5, 5]
000000 b4 5b 5d c1 13 06 e7 41 e2 d9 1b 41 be ab c1 41
       -13.834888 28.877966 9.740694 24.208858
000010 14 d5 bf 41 2a 79 2b 40 e9 6b ac 3f f2 56 0f 41
       23.979042 2.6792703 1.3470432 8.958727
000020 8a bb 02 41 28 54 89 41 52 6c 16 c1 0a 0d 7a c1
       8.170786 17.166092 -9.401445 -15.628183
000030 9a ce 6a c1 58 01 08 41 68 13 a5 41 8c 75 ce bf
       -14.67544 8.500328 20.634476 -1.6129622
000040 2f 6d 93 41 13 58 8c c1 54 dd 92 41 d0 77 c6 41
       18.428312 -17.543005 18.35807 24.808502
000050 e3 43 26 c0 39 70 62 41 66 a8 ae c0 ac dc f6 40
       -2.5978935 14.152398 -5.4580564 7.7144375
000060 03 a5 db 40 64 b8 df 3e 54 cb 3a 41 df 81 bc 40
       6.863893 0.43695366 11.674641 5.8908534
000070 4c 6a fe 40 df 53 ec 41 6f 68 93 c0 dc 49 48 3d
       7.9504757 29.540953 -4.6064982 0.048898563
000080 07 8f ec 40 d5 a3 27 40 99 f5 f3 40 de 4c ab c0
       7.3924594 2.6193745 7.62373 -5.353133
000090 5c 07 82 c1 12 08 83 c1 36 59 14 41 a1 7e 59 41
       -16.253593 -16.37894 9.27178 13.593415
0000a0 d9 ec 47 c0 59 45 17 41 ea fd 8f c1 f8 58 53 41
       -3.123831 9.454431 -17.998981 13.209221
0000b0 0b 2c 5c 41 1c 6c dc c0 08 3a 00 c0 e5 39 b1 c1
       13.760753 -6.888197 -2.003542 -22.153269
0000c0 7c f1 aa bf c5 81 6a 41 19 e1 0a c1 25 9a 61 41
       -1.3354945 14.656682 -8.6799555 14.100133
0000d0 3d 53 e2 40 76 1c 5a 41 86 94 01 42 fd cd 68 c0
       7.072661 13.631948 32.395042 -3.6375725
0000e0 a0 3f c6 3f 78 7d d0 3e 05 c3 32 41 fe 85 95 41
       1.5488167 0.40720725 11.172612 18.690426
0000f0 23 0b c2 c0 b4 86 4a c1 fe 9f 17 c1 a8 ca 9c 41
       -6.0638595 -12.6578865 -9.476561 19.598953
000100 95 8c d4 41 d7 b2 da c0 5d 14 cd 40 79 27 8e c1
       26.568644 -6.834331 6.4087358 -17.769274
000110 d0 93 a8 41 d9 a5 9f 41 9b 9f 68 c0 fd 5b 8b c0
       21.072174 19.95598 -3.6347415 -4.354979
000120 5c 8c fa c1 c1 6c 85 41 45 70 b6 41 4d 42 0d bf
       -31.318535 16.678102 22.80482 -0.5517929
000130 5d 37 5e c0 5d f5 fa bf 70 ba 02 c0 cf 4b c9 40
       -3.472129 -1.9606129 -2.0426292 6.290504
000140 3a ea 59 be ba d3 8a c0 30 3f 53 3e 8b ec a9 c0
       -0.21280757 -4.3383455 0.20629573 -5.310125
000150 84 93 08 40 ab a2 ff bf 6e cd 83 bf d7 a8 74 40
       2.1340036 -1.9971517 -1.0297067 3.8228052
000160 a6 b7 95 bf 74 44 21 3e a1 1f 35 c0 16 1b 47 c0
       -1.169667 0.15748769 -2.8300555 -3.1110282
000170 bd 3c ac 40 7f e5 b3 40 6a c7 c3 3f d0 ab 13 40
       5.3824143 5.6217647 1.5295231 2.3073616
000180 aa 82 83 c0 21 da 78 40 b5 44 2d 41 71 a6 f7 3d
       -4.1097 3.8883135 10.829274 0.12092293
000190 b2 b1 00 bf 23 1f 31 c0 57 1c 8e c0 54 bf 13 be
       -0.5027114 -2.7675254 -4.4409595 -0.14428455
0001a0 06 71 d3 40 fb 83 55 3f 53 b3 20 c0 63 ce 84 c0
       6.607547 0.8340451 -2.510945 -4.1501937
0001b0 81 c1 b7 3f 38 38 24 40 18 c8 60 bf e0 74 f7 bf
       1.4355928 2.5659313 -0.8780532 -1.9332542
0001c0 16 18 19 bf 4b 25 31 40 21 ec 47 3f db 7c e3 bf
       -0.5980238 2.7679012 0.7809468 -1.7772478
0001d0 48 75 37 bf d8 0d a7 40 e0 e3 eb 40 36 12 e3 3f
       -0.7166333 5.22044 7.371567 1.7739933
0001e0 65 d2 b4 be a0 d6 e0 3e 1d ca a1 40 0a 7d 32 41
       -0.35316768 0.43913746 5.055922 11.155527
0001f0 74 bb 8f 3f 76 92 7c 3e 06 34 00 c0 2c 44 ab c0
       1.1229081 0.24665245 -2.0031753 -5.352072
000200 2f d8 85 3f 81 d9 16 41 30 3f c9 3f af 8a 08 c0
       1.0456599 9.428102 1.5722408 -2.1334646
000210 7f 4e 3e c0 91 59 53 40 22 5a 4f 40 a2 33 86 bf
       -2.973541 3.3023417 3.2398763 -1.0484507
000220 7f a9 98 bf fa 50 d5 bf bb 06 70 40 de 3f 85 40
       -1.1926726 -1.6665337 3.7504108 4.1640463
000230 54 59 7d c0 14 63 b5 bf 1d 6c eb 40 1c 85 f4 40
       -3.9585772 -1.4170861 7.3569474 7.6412487
000240 b2 7b 80 40 2b d9 3a 3f 07 de 53 3e d6 eb ca 40
       4.0150995 0.7298762 0.20690165 6.3412886
000250 46 5b 4a 41 9f 0b 7f 3f 4b 40 e8 be 1c c4 00 40
       12.647284 0.9962711 -0.45361552 2.0119696
000260 08 0d d6 3e f6 68 19 3f e7 4b a2 bf 6f 6a e1 be
       0.41806817 0.5992578 -1.2679414 -0.44026515
000270 c1 bd af 3f 1b b0 b6 3d ee d1 0a 3e 5a dc dd bf
       1.3729783 0.08920308 0.13556644 -1.7332871
000280 e3 d1 a3 bd 36 d0 53 3f 62 99 8e be 07 db d5 be
       -0.07999017 0.8273958 -0.27851397 -0.41768667
000290 f3 23 ab bf 8d 37 e9 be fb e6 a8 3f 90 ec b8 3c
       -1.3370346 -0.45550194 1.319549 0.02257374
0002a0 e0 08 be bf b5 ae d4 bf c3 54 b8 3e f4 4e 02 be
       -1.4846458 -1.6615816 0.36002168 -0.1272543
0002b0 76 32 d6 3f fb fc b9 bf 59 a2 8d bf 44 9c 86 3e
       1.673415 -1.4530329 -1.106517 0.26291096
0002c0 33 d5 1d 40 7a 21 7f be f3 e8 82 3e c8 6d a8 bf
       2.4661376 -0.24915114 0.2556835 -1.3158503
0002d0 0a ea 0d bf 9f 01 bb 3f be 2d 8f 3e 40 1a a0 3e
       -0.5543524 1.460987 0.27964586 0.31270027
0002e0 40 c3 49 3e 44 77 80 be 96 74 b1 3f 03 ac 4c bf
       0.19703388 -0.25090992 1.3863704 -0.7994997
0002f0 e8 61 ce be 37 aa e7 3e 7b 01 53 3e a1 62 03 40
       -0.40309072 0.4524705 0.20606034 2.0528948
000300 70 fe e0 3d e0 70 bc bf 3b c8 9f be 50 1e 23 3f
       0.1098603 -1.4721947 -0.3120745 0.6371813
000310 a0 8b cb 3f 6f da 1d 3f b6 63 ed bf fb de cb be
       1.5901985 0.6166143 -1.8546054 -0.39818558
000320 58 41 19 3e c4 f9 2c 40 03 65 6e 3e 82 d6 3c 3e
       0.14966333 2.7027445 0.2328072 0.18441203
000330 82 ec a6 3e 59 ca de be 46 91 3d 40 be 47 8a 3e
       0.32602316 -0.43513754 2.9619918 0.2700786
000340 80 c7 85 3e ff 30 88 3e 9f 2a bf be 2b 51 92 3f
       0.2612877 0.2659988 -0.37337205 1.143102
000350 8d fb 90 bf 0c 20 10 bf 83 72 43 3f 5c f5 96 3e
       -1.1326767 -0.562989 0.76346606 0.2948407
000360 44 3a 17 40 22 d6 9d 3e 2b 00 aa bf be 20 f6 be
       2.3629313 0.30827433 -1.3281301 -0.48071855
000370 eb 58 f4 3d 87 4a f2 3f 10 f8 d4 3e 9b 93 de bf
       0.11931022 1.8928994 0.41595507 -1.7388796
000380 da f2 18 be 1e a9 2c c0 19 72 1c 40 77 1c a3 40
       -0.1493639 -2.697822 2.444464 5.0972247
000390 37 fa 85 40 88 8e 50 c1 c6 cf 96 41 e8 b1 61 41
       4.186794 -13.034798 18.851452 14.105934
0003a0 40 99 e6 40 f5 de 0c c1 56 e4 ce c0 95 38 65 40
       7.2062073 -8.804433 -6.465373 3.5815785
0003b0 b5 4e 61 41 78 42 29 41 48 c7 bd 40 ca 8c ea 40
       14.081716 10.578728 5.9305763 7.329686
0003c0 0a a1 2e c1 5a 00 45 c1 d7 0b 82 40 4b 61 16 c0
       -10.914316 -12.312586 4.0639453 -2.3496883
0003d0 6a 69 b4 3f 72 c4 c9 c1 d4 7b 30 40 84 9a 97 bf
       1.409467 -25.22092 2.7575579 -1.184403
0003e0 88 21 44 41 ec f7 e0 40 04 92 24 41 6c e2 35 41
       12.258186 7.030264 10.285648 11.367779
0003f0 f1 03 00 c0 54 78 9c 3e a4 9a 5e c1 b5 66 14 41
       -2.0002406 0.30560553 -13.912754 9.275075

conv1.bias f4 [16]
000000 61 25 3a c1 b5 fa b4 bf 8a 40 df be 36 87 f0 c0
       -11.634126 -1.413901 -0.43603927 -7.5165052
000010 82 1a 63 40 f7 cc 03 bf a3 4b 92 40 4c f5 8b 41
       3.548493 -0.51484627 4.571733 17.494774
000020 0f c0 26 3f e6 7b 4a 41 97 d9 97 41 74 b7 ef 3d
       0.6513681 12.655249 18.981245 0.11704913
000030 45 c1 36 c0 12 a5 28 3d 18 a2 b5 3e e6 f8 e3 3d
       -2.8555462 0.04117305 0.3547523 0.11131458

bn1.weight f4 [16]
000000 9e b1 91 40 30 a4 3a 3c 0c b0 f9 3c 52 58 8d 40
       4.552932 0.011391684 0.030479454 4.4170313
000010 e5 e3 f3 40 b9 83 bd c0 b4 fe b5 bf b4 c7 06 c1
       7.621569 -5.9223294 -1.4218354 -8.423756
000020 e0 a3 43 3d fb 1a bd 40 85 a3 8e 40 00 7a f4 b9
       0.047763705 5.9095435 4.457461 -0.00046630204
000030 dc 80 d5 40 02 fc 04 bd 80 a1 af 3b 40 24 da 3a
       6.67198 -0.032466896 0.0053598285 0.0016642883

bn1.bias f4 [16]
000000 c2 f8 54 be a8 7e 0d c0 69 12 d9 bf f7 08 a1 41
       -0.20798019 -2.2108555 -1.6958743 20.129377
000010 ad a5 03 c2 7c 50 5b c0 1c 24 c6 41 43 15 e4 bd
       -32.911793 -3.4267874 24.767632 -0.11136868
000020 87 02 67 c0 c6 ca b8 c1 f8 50 1b 41 0c d1 f0 be
       -3.6095293 -23.09901 9.707268 -0.4703449
000030 20 e2 80 c1 18 95 d8 bf b6 92 ce be 26 c6 4c bf
       -16.110413 -1.69205 -0.40346307 -0.7998985

bn1.running_mean f4 [16]
000000 df e7 3a c1 a6 ae b4 bf f2 2e e0 be 70 e7 f0 c0
       -11.681609 -1.4115798 -0.43785816 -7.5282516
000010 e0 80 4c 40 4d e6 2a bf a4 b6 94 40 2e 6b 8c 41
       3.195366 -0.6675766 4.647295 17.552334
000020 71 ae 27 3f ee 54 49 41 0d 52 97 41 8b 1f ee 3d
       0.6550055 12.583235 18.915064 0.1162711
000030 81 68 33 c0 e4 42 29 3d 06 89 b5 3e e8 c2 e3 3d
       -2.8032534 0.041323557 0.35456103 0.1112116

bn1.running_var f4 [16]
000000 71 ac 2a 42 6e 5a 4d 40 3f 2e 94 3e 12 74 c7 40
       42.6684 3.2086444 0.28941533 6.2329187
000010 2f 96 7a 41 ca 51 02 41 ef ba 35 41 10 d1 4e 41
       15.661666 8.144968 11.358138 12.926041
000020 4d 17 48 40 d8 ef 15 41 5f 1a e2 40 a9 67 56 3c
       3.1264222 9.371056 7.065719 0.013086238
000030 78 30 01 42 8a 8b 90 3e 9b ff 07 3e 48 64 fb 3c
       32.297333 0.2823146 0.132811 0.030687466

conv2.weight f4 [32, 16, 5, 5]
000000 a6 0c a1 be e9 01 a0 be 1a 5d 91 be 60 ff ad be
       -0.31454962 -0.31251457 -0.28391343 -0.33983898
000010 85 ec c7 3d 59 88 93 be 75 c5 89 be 24 85 8a be
       0.097619094 -0.28814963 -0.2690846 -0.27054703
000020 d6 c0 aa be 38 ab d5 3d 64 ec ab be 54 31 96 be
       -0.33350247 0.10433048 -0.3357879 -0.2933451
000030 9a da aa be 24 3a bf be c7 98 f1 bd 96 25 96 be
       -0.33369905 -0.37349045 -0.11796718 -0.2932555
000040 c5 9a 83 be 23 1c 86 be f2 96 93 be e8 02 c1 be
       -0.25704017 -0.26193342 -0.288261 -0.3769753
000050 d4 d9 82 be 70 bb aa be 2b cc 88 be 69 fe 9d be
       -0.25556815 -0.33346128 -0.26718268 -0.30858162
000060 c1 35 3f be f8 8c 88 be 32 75 44 be 8c f0 5f be
       -0.18672849 -0.2667005 -0.19185331 -0.21869105
000070 c3 03 58 be fb 11 c5 3d 92 eb 39 be 84 5d 71 be
       -0.21095185 0.0962257 -0.18156269 -0.2357083
000080 0e 45 76 be a4 99 3b be 60 70 00 be 86 4d 6c be
       -0.2404978 -0.18320328 -0.12542868 -0.23076448
000090 3a 63 47 be ba dc 66 be 08 5f 09 be c2 74 c3 bc
       -0.19471446 -0.22545138 -0.13415158 -0.023859385
0000a0 7f 55 2c be f8 a3 39 be 16 7f da 3b a0 7f 10 be
       -0.16829489 -0.18128955 0.006667982 -0.14111185
0000b0 ee b0 98 bd bc a3 68 be a6 6a 34 be 68 1a 6e be
       -0.07455622 -0.2271871 -0.17618808 -0.2325226
0000c0 25 68 5a be 14 c6 b0 bd 96 d9 81 bd 53 42 85 be
       -0.2132879 -0.086315304 -0.06340329 -0.26027164
0000d0 23 02 68 be 06 f2 27 be 34 49 76 be b1 4f 4b be
       -0.22657065 -0.16400918 -0.24051362 -0.19854619
0000e0 7b 73 81 be 16 dd 41 be 5e 69 4e be 33 fc 55 be
       -0.25283417 -0.18931994 -0.20157382 -0.20896988
0000f0 1c d8 1e 3b fd 13 29 be 46 db 2b be f5 8d 3f be
       0.0024237698 -0.16511531 -0.16782865 -0.18706496
000100 98 01 29 be a0 33 3b bd 34 43 6d be c1 20 7f be
       -0.16504514 -0.04570353 -0.23170167 -0.24914838
000110 76 de 47 bd 23 b1 67 be 2f c8 07 bc 1d 26 6f be
       -0.04879614 -0.22626166 -0.008287474 -0.23354383
000120 93 f6 32 be b2 8a 8d bd 07 68 60 be db 04 73 3d
       -0.17476873 -0.0691122 -0.21914683 0.059330802
000130 5e 16 84 be 7c 61 2f be 93 01 f9 bd 78 8a 64 bd
       -0.25798315 -0.17127031 -0.121585034 -0.055796117
000140 5c da c3 3c da d1 a3 be 98 27 23 be be fe 65 bd
       0.023907833 -0.31996042 -0.15933073 -0.056151144
000150 36 8e 14 be 6c 03 d3 3c d2 6e 99 be 7f 9d 29 be
       -0.14507374 0.025758468 -0.29967362 -0.16563986
000160 60 74 1e be c2 a5 80 bd dc d3 bb bd bf 97 86 be
       -0.15474081 -0.06281616 -0.09171268 -0.26287648
000170 81 b9 c7 bd 96 ab 54 be d1 f0 f4 bd 26 a1 be bd
       -0.09752179 -0.2076858 -0.119599946 -0.093080804
000180 74 45 02 be fa 62 11 be 8d eb 19 be 6b 1a f0 bd
       -0.12721807 -0.14197913 -0.15031262 -0.11723789
000190 70 31 77 be c3 4d 99 be 75 f8 80 bd d3 54 40 be
       -0.24139953 -0.2994214 -0.062973894 -0.18782358
0001a0 df 9c 23 bd 97 1c 9d be 92 e5 7f be 01 7e 8b be
       -0.039944526 -0.30685875 -0.24989918 -0.2724457
0001b0 ee 63 07 be f0 cd 81 be ab f8 9d be a9 05 9e be
       -0.13221714 -0.2535243 -0.3085378 -0.30863693
0001c0 bf 63 9f be fc 8e 34 be d4 5b 71 be fc 50 a6 be
       -0.31130788 -0.17632669 -0.23570186 -0.3248366
0001d0 52 3e 7f be 1c 2a 91 be 46 6b 19 3d 67 ba 99 be
       -0.24926117 -0.2835244 0.03745582 -0.30025026
0001e0 5e 08 77 be 08 3b 9e be 57 26 87 be 36 19 a4 3d
       -0.24124286 -0.30904412 -0.26396438 0.08012621
0001f0 53 9d a8 be 0b 40 85 be ed ac 7e be 90 2a 8b be
       -0.3293253 -0.26025423 -0.24870653 -0.2718091
000200 b0 d7 87 bb d8 5d 15 be 08 e6 83 be fa 46 8c be
       -0.004145585 -0.1458658 -0.25761437 -0.273979
000210 05 ca 7e be 20 79 29 be da 75 2b bd de 67 78 be
       -0.24881752 -0.16550112 -0.04186044 -0.24258372
000220 de 48 a0 be 7a e2 97 be e3 28 2a be 98 25 32 bc
       -0.31305593 -0.29664975 -0.1661716 -0.010873221
000230 fe 58 45 be d2 be 9d be bc 29 61 be 44 9e f3 3c
       -0.19272229 -0.30809647 -0.21988577 0.029738553
000240 c0 31 0a bb 9c 6e cf bc 88 ed 85 be e6 bb e5 bc
       -0.0021086782 -0.025321297 -0.26157784 -0.028043699
000250 4c 9b 00 3d 4e 99 93 be 90 99 fc bd 3a 6d 9a be
       0.031398103 -0.288279 -0.12333977 -0.30161458
000260 f7 7a ca bd 7f b1 5a be f5 fe c4 bd 26 56 3b be
       -0.09886735 -0.21356772 -0.09618942 -0.18294582
000270 8c d0 7d be 64 d6 40 be 80 0a 97 be 9c 60 29 be
       -0.24786586 -0.18831784 -0.29500198 -0.1654076
000280 3b bb e6 bd a0 56 78 be fd 5d 92 be b9 7d 85 be
       -0.1126618 -0.24251795 -0.28587332 -0.2607248
000290 76 39 e4 bd 22 c6 45 be 5e 35 0c be 3d f5 9d be
       -0.11143772 -0.19313863 -0.13692233 -0.30851164
0002a0 f2 6d 76 be bc 7c 4a be 1e 97 34 be fa ab 99 bd
       -0.24065378 -0.19774145 -0.17635772 -0.07503505
0002b0 1e 75 cb bd 66 3e b8 3d f4 c5 2f be fc a2 9a be
       -0.09934448 0.089962766 -0.17165357 -0.30202472
0002c0 ff 8c aa be 2e 4d 99 be a4 6b a5 bc d6 73 26 bd
       -0.33310696 -0.29941696 -0.020192929 -0.040637814
0002d0 98 7a 9c be a3 15 89 be ba f5 99 be ec 59 94 bd
       -0.30562282 -0.2677432 -0.30070287 -0.07243714
0002e0 a4 7b a6 bc 8a 9b a5 be 1a 80 a0 be a9 8a 93 be
       -0.020322628 -0.3234523 -0.31347734 -0.28816727
0002f0 0e 9f 86 bd 00 35 e5 bb 83 89 92 be cc a9 86 be
       -0.06573306 -0.0069948435 -0.28620538 -0.2630142
000300 3e 85 b6 be c0 3e 9b 3d 00 e6 31 3a b8 25 8b be
       -0.3564853 0.07580328 0.0006786287 -0.27177215
000310 51 9b 9a be 6c 14 b6 be c0 0e 64 bc a6 12 5f be
       -0.30196622 -0.35562456 -0.013919532 -0.21784458
000320 ef 89 0b 3b 9e 0f 19 3d 70 0b 65 be 9c 67 3f be
       0.0021291932 0.03736841 -0.22367644 -0.18691868
000330 72 27 1e 3c 32 8a 28 3d 2b 67 6e be 29 72 74 be
       0.009652959 0.04114742 -0.23281543 -0.23871674
000340 7f f2 43 be 14 8c 5c 3c 5d 94 e9 bc 45 c7 55 be
       -0.19135474 0.013461132 -0.028513128 -0.20876797
000350 d4 5d 28 be c8 b3 3a be 42 af b4 bc d7 ca cd 3b
       -0.16442043 -0.18232644 -0.022056226 0.006280284
000360 bc 9f 7e be 98 15 06 3d 87 29 6a be ea 3d 81 3d
       -0.24865621 0.032735437 -0.22867404 0.06310637
000370 bb c1 46 bd a8 85 2a be 73 e6 06 3d 0b 57 26 be
       -0.0485246 -0.16652548 0.032934617 -0.16244142
000380 bc 11 56 bd a0 86 0d be 18 cc 96 be 2a 0f a9 be
       -0.052263007 -0.13820887 -0.29452586 -0.33019382
000390 6c d1 7f be f9 73 de bd b8 5d 57 be 0a 24 9d be
       -0.24982232 -0.10861964 -0.21031845 -0.30691558
0003a0 50 6e 97 be 1e 91 7d be db df 85 bd a6 7d da bd
       -0.2957635 -0.24762389 -0.06536838 -0.10668497
0003b0 23 95 85 be a4 d9 96 be e0 d8 9a be 68 5c c0 bd
       -0.26090345 -0.29462922 -0.30243587 -0.09392625
0003c0 72 3b e7 bd 58 b9 83 be 9e 08 9a be 79 5e d5 bd
       -0.11290635 -0.25727344 -0.300847 -0.1041841
0003d0 d9 ed 88 be 21 2d 9d bd 06 20 83 be cd 77 88 be
       -0.26743963 -0.07674623 -0.2561037 -0.266539
0003e0 66 18 a3 be 72 52 86 be e0 c2 10 be a3 3a 94 be
       -0.31854552 -0.26234776 -0.14136839 -0.28950986
0003f0 16 6d 6a bd 00 4e 7a 3b 62 35 29 be e9 ae 4f be
       -0.05723294 0.0038193464 -0.1652427 -0.20281567

conv2.bias f4 [32]
000000 99 9b af bc 5f 3d 19 bd 5b 77 f9 3c 87 25 67 bd
       -0.0214365 -0.037412044 0.030452421 -0.056432273
000010 f8 47 0e 3d 80 5f 7d 3d 51 6e 38 3d 3b 72 bb bd
       0.034736603 0.061858654 0.04502708 -0.09152647
000020 7a 7f c8 3d 72 2c 9b 3b d0 97 75 bd 5c 52 c7 bc
       0.09789939 0.004735523 -0.059959233 -0.024331264
000030 47 c3 99 3e a5 65 58 3c e8 5f a1 3d 8b 3c ac 3c
       0.30031797 0.013207828 0.07879621 0.021024963
000040 47 85 1d 3e 5d 68 f1 bc f9 54 93 3c 2a 0d 71 bd
       0.15382873 -0.02946871 0.017984854 -0.058850445
000050 d5 d1 26 3d a3 7e 99 3d 04 ed 1a bd fa e1 b9 3c
       0.040727455 0.07494857 -0.037823692 0.022690762
000060 58 a6 23 be 38 4c e4 bd 2c fa 05 3e b0 29 1f 3d
       -0.15981424 -0.1114735 0.13083714 0.038858116
000070 05 d2 69 bb d4 84 1a bc 74 01 1a 3d 3c 0d 35 bd
       -0.003567816 -0.009431083 0.037599042 -0.044202074

bn2.weight f4 [32]
000000 f4 d9 f1 3d 6c 1e 2c bd 00 2c c3 bb de b6 cf 41
       0.118091494 -0.0420212 -0.005956173 25.96429
000010 00 fe f9 bc 70 76 bd 41 dc cc f8 3c 5a fb 0c 42
       -0.030516624 23.68283 0.030371122 35.24546
000020 9a f6 ef 41 62 88 23 42 5a 4f bb 3d 7a 7d 99 3e
       29.99541 40.883186 0.091459945 0.29978544
000030 30 be 27 42 4f 0b 3c 3e 10 e0 12 3c f4 53 b3 41
       41.93573 0.18363689 0.0089645535 22.415993
000040 ec 6b 9d 41 ae 31 90 41 aa 56 7c 3d ec ee e8 41
       19.677696 18.024258 0.061606087 29.116661
000050 20 de e2 bc a7 43 d5 c1 16 7f 32 41 22 d2 19 42
       -0.027693808 -26.658033 11.156027 38.455208
000060 30 ff d4 41 2d 0f ad 41 db 81 2b 42 f8 5e 13 3c
       26.624603 21.63241 42.876812 0.00899481
000070 f0 5e f4 3b 57 0e a5 3d 00 10 71 3a 5e 9e 40 3d
       0.0074576065 0.08059376 0.00091958046 0.04702603

bn2.bias f4 [32]
000000 f4 53 9e be d9 2b cc be 6a 18 bf be eb 58 b6 40
       -0.30923426 -0.39877203 -0.37323314 5.6983542
000010 bd 17 13 c0 9d 32 f5 41 90 fd d8 bf c2 5c e2 41
       -2.2983239 30.649714 -1.6952381 28.295292
000020 c2 fe 90 41 ec de 04 41 6e a3 f7 be 34 63 31 bf
       18.124393 8.304424 -0.48366874 -0.69291997
000030 03 74 b4 41 2b 0e 32 bf f0 42 73 c0 57 fc 19 42
       22.556646 -0.6955287 -3.8009605 38.496426
000040 52 32 6d c0 06 3d 14 42 70 56 99 be eb c8 24 c1
       -3.7061963 37.059593 -0.2994876 -10.299052
000050 59 d6 4c be c6 85 1f 42 d5 22 03 42 2b f7 bd 41
       -0.20003642 39.88064 32.784016 23.745687
000060 8c b1 ae 41 a8 e4 55 42 28 bf 66 42 0b 4b 13 bf
       21.836693 53.473297 57.686676 -0.5753638
000070 ea 1e 19 bf 57 70 cc be 11 51 7e bf 02 f0 cb be
       -0.59812796 -0.39929458 -0.9934245 -0.3983155

bn2.running_mean f4 [32]
000000 1a c1 5b c3 ed 78 ed 43 60 50 4a 44 5b 68 37 c5
       -219.7543 474.94473 809.25586 -2934.5222
000010 05 a0 b8 44 59 e6 b8 44 4f 58 98 c3 97 b8 82 c5
       1477.0006 1479.1984 -304.6899 -4183.0737
000020 bb 0e 47 42 8e 89 69 45 4d 22 58 c3 ec 92 19 c4
       49.764385 3736.5972 -216.13399 -614.29565
000030 4d 4c 92 45 9a 14 9c c3 b2 f6 fa c3 f4 c8 a6 45
       4681.5376 -312.16095 -501.9273 5337.119
000040 e6 a3 a6 45 53 a0 bc 45 2f 5b 8d c3 fa 69 ce 45
       5332.4873 6036.0405 -282.71237 6605.247
000050 12 14 1e 44 b5 55 fd c4 3b 45 08 45 cd 4e 43 c5
       632.3136 -2026.6783 2180.327 -3124.925
000060 d2 84 1f 45 1a 4e 93 45 ff f9 ab 45 9b fa 46 c2
       2552.3013 4713.7627 5503.2495 -49.74473
000070 9a 6e 75 43 4b e3 bf c3 b9 43 60 c4 6a 83 15 c3
       245.43204 -383.77573 -897.05817 -149.51334

bn2.running_var f4 [32]
000000 36 35 c2 44 4e 26 b6 45 94 b0 44 46 6f 27 45 49
       1553.6628 5828.788 12588.145 807542.94
000010 f8 5a 71 47 f0 0b 81 49 ec 34 44 47 ac 8f 08 49
       61786.97 1.05715e+06 50228.92 559354.75
000020 04 c3 05 4a 23 05 70 49 7c ab 83 44 c1 f0 c8 45
       2.191553e+06 983122.2 1053.3589 6430.094
000030 19 32 25 49 47 3c 1a 45 c4 98 18 47 b1 ab 57 49
       676641.56 2467.7673 39064.766 883387.06
000040 b9 e8 09 49 c1 06 4d 49 90 e9 a8 44 bd 63 64 49
       564875.56 839788.06 1351.2988 935483.8
000050 93 f6 02 46 47 5e 89 49 22 c8 7c 49 1c 5b 70 49
       8381.644 1.1253209e+06 1.0353941e+06 984497.75
000060 4a 6f 01 49 94 e0 0f 49 97 5f 5a 49 4c 2f 16 47
       530164.6 589321.25 894457.44 38447.297
000070 25 f3 02 45 c8 7a 23 45 a8 a7 85 46 80 ff 61 44
       2095.1965 2615.6738 17107.828 903.9922

conv3.weight f4 [32, 32, 5, 5]
000000 ba ad 2c be 8a a6 53 be d7 bc 36 be ae 3a 40 be
       -0.16863146 -0.20668998 -0.17845474 -0.18772385
000010 f0 36 35 3c 74 8b 5c be 6a ec dd bd 0a 29 d5 bd
       0.011060461 -0.21537572 -0.10836108 -0.10408218
000020 bd 5a b7 bd 0c 02 cc bc 2c d6 bb 3c 12 05 ef bd
       -0.08952854 -0.02490332 0.022929274 -0.11670889
000030 e0 8a d3 3c 80 88 c9 bd 40 3b 52 be 26 08 3f be
       0.025823057 -0.098404884 -0.20530415 -0.18655452
000040 24 9a 24 be 48 f4 2e 3e 0e 84 2a be ac e2 80 3c
       -0.16074425 0.17085373 -0.16651937 0.015733086
000050 16 51 6a be 6e b1 9f bd f1 59 4d 3e 8c 4f ec bd
       -0.22882494 -0.07797514 0.20053841 -0.1153861
000060 20 a3 b2 bb 8c 36 b4 bd 74 9f 01 3e bf 8a e0 bd
       -0.005451575 -0.087994665 0.12658483 -0.10963964
000070 ae 2a ec bd 5c c9 8c 3d ef 7f 06 be 38 4f 88 3d
       -0.11531578 0.06874344 -0.1313474 0.06655735
000080 05 d1 ba bd 0a 7f 0a be 6d ac e0 3d 95 28 87 bd
       -0.091218986 -0.13525024 0.109703876 -0.06599537
000090 78 65 8b 3d 84 40 93 3d 05 77 a5 bd 82 57 04 3e
       0.06806463 0.0719004 -0.08079342 0.12924007
0000a0 22 4a 9a bd cf 47 96 3d 2d 7c fe 3d 02 f8 fc 3d
       -0.07533671 0.07337915 0.124260284 0.12351991
0000b0 46 90 e7 3d 81 b2 d0 bd 4d 31 b1 3d bb f8 9f 3d
       0.11306815 -0.10190297 0.086519815 0.078111134
0000c0 b2 7b d4 3d dd 30 e4 3d be 4a a3 be ed d1 f6 be
       0.103751555 0.111421324 -0.3189296 -0.48207036
0000d0 e6 2f 94 be cf 11 ba bd 6e 66 90 be 82 e8 a1 be
       -0.28942794 -0.09085428 -0.28203148 -0.31622702
0000e0 87 ce 01 bf a4 3d 8e be 06 18 d8 bd af 35 fd be
       -0.5070576 -0.27781403 -0.10551457 -0.4945502
0000f0 00 b2 d8 bd 9b 0d f7 be c6 42 99 be 56 0b a9 be
       -0.10580826 -0.48252568 -0.29933757 -0.3301646
000100 0a 11 89 be 12 5f be bd 51 d9 e7 be a0 2b a0 be
       -0.26770812 -0.09295477 -0.45282987 -0.31283283
000110 37 c3 96 be 06 3d 9f be 7c 0c c7 bd 3b a6 ed bd
       -0.29445812 -0.31101245 -0.09719178 -0.116039716
000120 b2 bf 46 bd 07 14 b1 be 93 13 9f bd bd 67 57 be
       -0.04852266 -0.34585592 -0.07767405 -0.21035667
000130 f2 6f 13 bf 3b 7a 0e bf 89 a9 2a bf 7b 94 05 bf
       -0.5759269 -0.5565526 -0.6666494 -0.5217969
000140 4b 27 d0 be b0 91 db be ab c3 e9 be 90 c3 10 bf
       -0.40654978 -0.42884588 -0.45657095 -0.56548405
000150 a4 48 a8 be 43 61 dc be fc 1a 7c be 30 bd cf be
       -0.3286792 -0.43042955 -0.24619669 -0.40574026
000160 2e f6 0c bf d6 76 c7 be f8 1a cb be 2f 64 7d be
       -0.5506314 -0.38957852 -0.39669013 -0.24745248
000170 ab 7a e9 be c3 69 0d bf c9 d2 aa be 02 5c d2 be
       -0.456014 -0.55239505 -0.3336394 -0.4108582
000180 3b 25 c8 be e1 36 15 bf 09 1d 03 bf bb 31 15 bf
       -0.39090905 -0.58286864 -0.5121618 -0.5827901
000190 ee 0c 17 3d e1 c8 09 be 88 43 25 bd e6 52 c8 3d
       0.036877565 -0.13455535 -0.040347606 0.097814366
0001a0 9f 64 56 be 0a e9 3e 3c 74 76 9f bd 56 de 73 3e
       -0.20936821 0.0116522405 -0.07786265 0.23815283
0001b0 e2 2a ba 3d a3 46 7c 3c bd db c8 bd 9c 73 29 bd
       0.090902105 0.0153977005 -0.09807537 -0.04137002
0001c0 e1 e3 d5 3e 10 0b e5 3d b1 37 ee bc 1f 01 c9 bd
       0.4177542 0.11183751 -0.02907929 -0.09814667
0001d0 72 5b 09 3d a7 29 bd 3e e0 38 0b bb ef 5d 3e 3e
       0.033534475 0.3694584 -0.0021243617 0.1859052
0001e0 90 13 13 bd 81 6d 3a be 20 96 f6 bc 06 65 4e be
       -0.035907328 -0.18205835 -0.030100882 -0.20155725
0001f0 4b 3c 5a 3e 52 07 96 3e b6 48 2a bd 36 0f 7b 3e
       0.21312062 0.2930246 -0.04157325 0.24517521
000200 7d 8f 56 3e 14 4e 40 be 52 cc c9 3d 2a 6b cf bd
       0.20953174 -0.18779784 0.09853424 -0.10127862
000210 fa 1c 61 3e 3e 81 25 3d 79 fb 98 3e b0 83 a9 bb
       0.2198371 0.040406458 0.29879358 -0.005173169
000220 40 7b 20 be ba f1 4a 3e 1a e4 53 be 1d 3b 17 3f
       -0.15672016 0.19818774 -0.20692483 0.59074575
000230 9d a3 54 3e 3c bb 8c bd f3 97 e1 3e 07 eb 69 be
       0.20765539 -0.068716496 0.4406124 -0.22843562
000240 3c 9b 09 3f da 21 56 3e 6c 97 13 be a8 b2 29 3f
       0.53752494 0.20911351 -0.14413232 0.6628823
000250 40 68 82 ba e4 aa 82 3e f4 4c e0 be 64 10 fb be
       -0.0009949282 0.25521004 -0.4380871 -0.49035943
000260 b6 44 f1 be 61 21 82 be c2 ba 94 be 62 6f d3 be
       -0.47122735 -0.2541609 -0.29048735 -0.41295916
000270 3e 1e 00 bf 56 07 f6 be d2 a9 ff be 9e 89 9f bd
       -0.50046146 -0.48052472 -0.4993425 -0.0778992
000280 2a 17 ce be 3d 9c f0 be 5e 71 fa be 94 ec ed be
       -0.40252048 -0.469942 -0.48914617 -0.46469557
000290 b9 9f a3 be 85 17 cf be 13 ad 73 be 71 35 e3 be
       -0.31957796 -0.4044763 -0.23796491 -0.4437671
0002a0 21 a0 df be 61 77 98 be b6 e2 a5 be bb 6c 3e be
       -0.43676856 -0.2977858 -0.3239953 -0.18596165
0002b0 92 2e a8 be 69 53 c7 be d7 f0 8e be a2 53 a9 be
       -0.3284803 -0.38930824 -0.2791812 -0.3307162
0002c0 18 a7 b6 3c be eb 0c bf 8e 40 fc be ac 06 a5 be
       0.022296473 -0.55047214 -0.49268 -0.32231653
0002d0 97 72 af be 4a de 3a be b7 42 e0 be d2 4d 20 bf
       -0.34267113 -0.18248859 -0.438009 -0.62618744
0002e0 26 cd b7 be 15 75 86 be 54 4d 58 be fc e3 cd be
       -0.35898703 -0.26261202 -0.21123248 -0.40213
0002f0 a4 e0 0f bf 76 95 a0 be dc da 74 be 5c 98 e9 bd
       -0.5620215 -0.3136403 -0.23911613 -0.11406013
000300 a2 f2 e3 be 30 2c 8e be 44 5a 1c bf 02 39 01 be
       -0.44521052 -0.27768087 -0.61075234 -0.12619403
000310 6a 30 39 3d f3 c5 bb be 06 87 a6 be a2 ed c8 be
       0.045212187 -0.3667446 -0.3252489 -0.392438
000320 60 41 b3 be 10 91 2c be 4a 91 12 bd 96 42 d3 3e
       -0.35010815 -0.16852212 -0.03578309 0.4126174
000330 dc 52 59 be 68 8b 34 be 80 f0 9a 3b 10 25 b2 3b
       -0.21223015 -0.17631304 0.004728377 0.005436547
000340 cc dd 45 3e f4 77 06 bf 24 56 3d be 8e 4f 46 be
       0.1932289 -0.52526784 -0.18489891 -0.19366285
000350 f0 e6 45 bc 4c 16 59 bd 99 b1 aa be 30 f2 9b be
       -0.012078986 -0.05299978 -0.3333862 -0.30458212
000360 8a e3 05 be e7 6b 4e be aa 57 22 bd 46 cb c2 be
       -0.1307508 -0.20158349 -0.039634384 -0.3804571
000370 be 1f d2 3d 00 65 05 3e 2e 0a 33 3e 30 3c 3a 3e
       0.102599606 0.1302681 0.17484352 0.18187022
000380 96 fa 60 be 1b b1 0d bf 53 c2 a3 be e2 9f 83 be
       -0.21970591 -0.55348366 -0.31984195 -0.25707918
000390 f4 01 44 be 3d bb e0 3d 50 c9 e4 be b9 3f af be
       -0.1914137 0.10973213 -0.4468484 -0.34228304
0003a0 9c ae 5f be c2 f4 ce be c5 66 1e 3e 87 fc dd be
       -0.21843952 -0.4042111 0.15468891 -0.43356726
0003b0 74 28 a6 be c7 a8 8b be 55 3d c4 be c8 12 8f bd
       -0.32452738 -0.27277204 -0.38328043 -0.06986004
0003c0 fb 52 fc be 21 d8 a2 be 99 0b 8c be 5d 2e b9 be
       -0.4928206 -0.31805518 -0.27352598 -0.36168185
0003d0 a8 10 aa bd e6 d6 f9 be af c6 29 be b2 4e 07 be
       -0.08303958 -0.48796767 -0.16579698 -0.13213614
0003e0 3b 39 c3 be 13 f1 92 be 88 4e 8d bd d0 94 90 bd
       -0.381296 -0.2869955 -0.06899744 -0.07059634
0003f0 90 1c 9f bd 0a 10 8a bd f6 35 9d bd e0 da b0 bd
       -0.0776912 -0.067413405 -0.07676308 -0.08635497

conv3.bias f4 [32]
000000 ab 14 20 3c d6 24 91 3b fe 46 0c bd e2 f1 ba 3c
       0.009770553 0.00442944 -0.03424739 0.022820417
000010 38 a4 21 3c 95 dc 3a bc e8 41 c8 bc f3 68 7b bb
       0.009865813 -0.01140513 -0.024445489 -0.0038362115
000020 3d ea 18 3d 6a ff 2e bc 08 13 0b 3d 2c d9 0b 3d
       0.037332762 -0.010681013 0.033953696 0.034142658
000030 00 11 a8 3c 72 de a0 3c b6 ce d8 3c a6 14 c9 3c
       0.020515919 0.01963732 0.026465755 0.024545979
000040 c2 c0 5c bd f7 09 05 bd 02 da 82 bb 29 18 fd 3c
       -0.053894766 -0.032480206 -0.0039932737 0.03089531
000050 16 0c 7e bc 01 0a 2c bc c2 b7 29 3b 75 93 21 bc
       -0.015505811 -0.010500432 0.0025896882 -0.009861817
000060 05 18 01 bd d7 03 71 3b fb 6a a2 3c d0 13 1e bd
       -0.031517047 0.003677597 0.019826403 -0.038593113
000070 04 7e 80 bb 86 03 b5 3c 13 fb b8 3c 83 93 07 bd
       -0.0039212722 0.022096407 0.022580659 -0.033099663

bn3.weight f4 [32]
000000 44 29 13 3d d4 0c 0c 3d 40 eb 1c 3c 04 06 2e 3e
       0.035928026 0.03419192 0.009577572 0.16994482
000010 38 18 93 3c 4c 76 11 3d 90 7e 77 bc de fa 20 3d
       0.017955884 0.035513207 -0.015105858 0.039301746
000020 74 56 4a 3d 45 d3 9e 3d 4a ef d5 40 a0 03 90 bb
       0.049398854 0.0775514 6.68546 -0.0043949634
000030 80 cb 0e bc c3 21 d3 3d 40 49 53 3b 7c 58 e7 bc
       -0.00871551 0.10309174 0.0032239705 -0.028240435
000040 22 cb 1c 40 3d 32 36 bf 9a 90 12 3d a4 a2 d0 3c
       2.4498982 -0.7117041 0.035782434 0.025468178
000050 de 6b 23 bd 28 9c 2a bc 68 a6 aa 3c c6 42 0c 3d
       -0.039897792 -0.010413207 0.020831302 0.034243368
000060 48 c1 6e 3d 90 7a ec 3b 74 d7 5d 3d b7 a5 8b 3e
       0.058289796 0.007216759 0.05416055 0.27274868
000070 c0 19 26 bb 80 42 1b 3a 48 f2 62 3c 38 9c 7b bc
       -0.0025344938 0.000592269 0.01385171 -0.01535707

bn3.bias f4 [32]
000000 47 87 19 bf 6e cc 8c bf 41 9b 19 bf 57 02 80 bf
       -0.5997204 -1.0999887 -0.60002524 -1.0000714
000010 ac 9d 19 bf f6 9f d9 bf d3 db 4c bf bf 99 99 bf
       -0.60006213 -1.7001941 -0.80022925 -1.2000045
000020 26 d5 4c bf c3 5e 66 bf bf 65 46 40 c3 cc 4c bf
       -0.8001274 -0.89988345 3.09996 -0.7999994
000030 f7 98 99 be cc 30 33 bf c3 9e 99 be 0a d3 4c bf
       -0.29999515 -0.69996333 -0.30003938 -0.8000952
000040 cf 68 06 c0 f8 ff 1f 40 10 cc 4c bf bd 60 66 bf
       -2.100147 2.499998 -0.79998875 -0.8999136
000050 e6 05 80 bf 58 a0 19 bf f0 cd 4c bf e2 98 99 bf
       -1.00018 -0.6001029 -0.80001736 -1.1999781
000060 b9 98 19 bf 1c 32 33 bf b1 ce 8c bf b9 cc 2c 40
       -0.5999866 -0.69998336 -1.1000577 2.6999953
000070 eb cb cc bd b2 13 00 bf 7f cd 4c bf 6f 2d 33 bf
       -0.09999832 -0.5003005 -0.8000106 -0.699912

bn3.running_mean f4 [32]
000000 ee a8 9c c4 d6 fc dc c4 5a 31 01 41 e3 e1 43 c5
       -1253.279 -1767.9011 8.074549 -3134.118
000010 3b d1 3c c5 06 51 29 c4 91 4f e2 c4 90 32 93 44
       -3021.077 -677.266 -1810.4865 1177.5801
000020 8b 26 b8 c4 c4 e9 08 c5 a5 89 98 c6 02 2e 84 c4
       -1473.2045 -2190.6104 -19524.822 -1057.4377
000030 d0 77 aa 44 9a 89 86 c5 7c c5 80 44 a4 aa ee 44
       1363.7441 -4305.2 1030.1714 1909.3325
000040 a2 bd d1 46 07 05 5d c6 3c 20 6b c5 8a e5 0b c6
       26846.816 -14145.257 -3762.0146 -8953.385
000050 32 05 ee 44 e3 36 5d 45 06 c5 f4 c4 24 c8 f2 43
       1904.1624 3539.4304 -1958.157 485.5636
000060 cc 96 a4 c4 1d 04 f2 44 1e ef 1f c5 b8 05 df 45
       -1316.7124 1936.1285 -2558.9448 7136.715
000070 8e b7 8b 42 66 b2 b9 c4 2f 88 08 c5 98 f4 56 c4
       69.858505 -1485.575 -2184.5115 -859.8218

bn3.running_var f4 [32]
000000 4a 24 02 48 db 35 8c 48 0d 1c 17 47 56 c6 fe 48
       133265.16 287150.84 38684.05 521778.7
000010 90 bb f3 48 35 67 1f 49 91 28 ed 48 76 27 4b 4a
       499164.5 652915.3 485700.53 3.3284775e+06
000020 ab 01 82 48 5d 4d c8 48 7d b7 ae 4d d2 40 19 49
       266253.34 410218.9 3.6640758e+08 627725.1
000030 99 79 f5 47 f2 10 08 49 e3 e3 03 48 9e 33 f4 48
       125683.195 557327.1 135055.55 500124.94
000040 77 3d 34 4c ba 7c 4a 4c 2c dc 9d 49 f5 6c 51 4a
       4.724886e+07 5.308081e+07 1.2931895e+06 3.4312292e+06
000050 1b 5c e6 47 d8 a1 90 49 83 90 c4 48 db f7 ed 49
       117944.21 1.184827e+06 402564.1 1.9494354e+06
000060 59 b3 d6 47 c7 e1 51 48 bf ca 5b 49 50 a2 c0 4c
       109926.695 214919.11 900267.94 1.0099571e+08
000070 a2 7c 19 46 03 34 37 48 f6 37 a6 49 b9 0e 16 48
       9823.158 187600.05 1.3616628e+06 153658.89

head.weight f4 [2, 512]
000000 d6 ff 0a be e0 3b 0f be db 15 bf bd 2a a8 04 be
       -0.13574156 -0.13987684 -0.093303405 -0.12954774
000010 c7 72 c2 3d ae b9 2f 3d 58 66 b1 bd f6 38 ce bd
       0.09494548 0.042901687 -0.08662099 -0.10069458
000020 58 76 00 be 66 58 10 be fa db 01 be 38 a6 1b bd
       -0.12545145 -0.14096221 -0.1268157 -0.038000315
000030 74 1d cc bc 5a 66 47 3e e6 ee 9a bd 40 a7 10 be
       -0.024916388 0.19472638 -0.075650975 -0.14126301
000040 c6 e7 05 3d 22 97 af be 9e 14 00 3f 92 1c f4 3e
       0.03269174 -0.34294993 0.5003146 0.47678047
000050 ed 4c 84 3f b8 e5 e0 be a4 af 95 3e 64 79 df bc
       1.0335976 -0.43925261 0.29235566 -0.027279563
000060 3e 26 46 3e 99 60 4e be aa 41 56 3e 8b 48 8d 3f
       0.19350526 -0.20154037 0.20923486 1.1037763
000070 d2 29 7c 3f 80 44 71 3e f5 8e 11 bf d6 2d 34 bd
       0.9850131 0.23561287 -0.5685876 -0.043989025
000080 e3 1b 0f be bf ce 0e be 00 32 be bc e1 32 b7 3d
       -0.13975482 -0.13946055 -0.023217201 0.08945251
000090 5c ac cf bc 9e 67 2f 3d 32 2f cb bd 58 56 ca bd
       -0.025350742 0.042823426 -0.09921111 -0.0987975
0000a0 bc dc a0 bd 15 c4 d6 bd 94 8a df bc f3 03 c7 3d
       -0.07854602 -0.104866184 -0.027287759 0.0971755
0000b0 bc 40 c0 bd c8 ba ff bc e0 42 6b 3c c5 f4 ce bd
       -0.09387347 -0.031216994 0.014359206 -0.1010528
0000c0 96 21 dc bd cb 51 ab bd 60 e5 56 bb 5f 05 92 bd
       -0.107485935 -0.0836521 -0.0032790527 -0.07129931
0000d0 4b 17 dc bd e0 20 7d 3c 38 ab 5e be d7 75 e5 bd
       -0.1074663 0.015449733 -0.21745002 -0.11204117
0000e0 27 a8 c3 bd e4 e6 ea bd 84 90 63 bd c4 e0 ea bc
       -0.09553557 -0.1146982 -0.055557743 -0.02867163
0000f0 3c 0a b6 bd e6 42 ae be 86 ee 9e be c5 86 c2 bd
       -0.08888671 -0.34035414 -0.31041354 -0.094983615
000100 82 32 13 be 44 ed 99 bd db 6d e7 3d d4 d2 6a 3d
       -0.14374736 -0.07515958 0.1130025 0.057329968
000110 30 ff 49 be 3a aa 8a bd 84 94 0c be 38 85 99 bc
       -0.19726253 -0.067707494 -0.13728529 -0.018740281
000120 f8 4c ee bd d5 c4 79 bd d4 7e 65 3e 90 fa 80 3d
       -0.116357744 -0.06097873 0.22411662 0.06297791
000130 0c de ec bd 91 b3 d1 3e 1b b6 e0 3d c0 32 28 be
       -0.115657896 0.4095731 0.10972234 -0.1642561
000140 4b df f5 3d 93 16 7d bf 6e 87 a3 3e a8 b7 6a bc
       0.120054804 -0.9886257 0.31939262 -0.014326014
000150 a4 45 af be 25 24 ae be 77 08 55 bf 23 40 ae bd
       -0.3423282 -0.3401195 -0.8321604 -0.08508327
000160 6c 61 2e bf 22 a7 e2 bf 5f 28 62 3f 9d f5 ba bd
       -0.68117404 -1.7707255 0.8834285 -0.09128878
000170 53 08 93 3d fa 7d 5d bf b9 32 8b bf d9 cc c6 bd
       0.07179322 -0.8652035 -1.0874854 -0.0970704
000180 09 d5 11 3d b4 ab 98 bc e0 8b 8c 3d d3 90 dc 3e
       0.035603557 -0.018636562 0.068626165 0.43079242
000190 06 31 a8 3e 38 a3 c0 be 08 57 68 3c 0a c1 1a bd
       0.32849902 -0.37624526 0.014180906 -0.037781753
0001a0 2a 92 3b be 2b 64 a3 be ae 2d 7f 3d d6 32 de 3e
       -0.18317476 -0.3191236 0.062299423 0.4339816
0001b0 28 d9 1b bf a8 fe c1 3d 24 8d 0e 3c 40 1b 4e bb
       -0.6087823 0.094724 0.008700643 -0.0031449348
0001c0 8f e7 9c 3f 2c 04 60 3f 0d bb 20 3f da f7 bf 3f
       1.2258166 0.87506366 0.62785417 1.4997513
0001d0 77 bb 9c bf e8 2b 08 40 e8 b7 df 3f 44 44 94 3f
       -1.224471 2.1276798 1.7477999 1.1583333
0001e0 57 71 99 3f b4 85 50 3f e3 4c 52 40 41 eb dd 3f
       1.1987714 0.81454015 3.2859428 1.7337419
0001f0 00 89 b5 bf cf 2b a9 bf 07 2f 75 bf 83 f7 a1 3f
       -1.4182434 -1.3216494 -0.95774883 1.265366
000200 a6 7d a3 bd 54 b9 ae bd b0 b6 73 bc 3f a6 a2 bd
       -0.0798295 -0.08531442 -0.014875099 -0.07941865
000210 29 d2 08 3e 60 79 dc 3c c4 44 16 3d 42 23 cf bd
       0.1336142 0.026913345 0.036686674 -0.10114147
000220 b5 4e aa bd 66 bc c0 bd 6c 2e bb bd 10 2e 8a bc
       -0.083157934 -0.09410934 -0.09139714 -0.016867667
000230 96 36 53 3e 80 0f 1f 3a d0 56 8c 3b ec 73 c3 bd
       0.20626292 0.00060676783 0.00428281 -0.09543595
000240 c0 6c 18 3c 18 cd c9 bc 08 0a ad bc f6 ba a1 bd
       0.009303272 -0.02463393 -0.021122947 -0.07896988
000250 a0 38 65 3c 7a e9 05 be 00 20 af 39 8c 9f 83 3c
       0.013990551 -0.13077345 0.00033402443 0.016067289
000260 9c c0 2c bd c8 88 fb bc 40 0f 0f 3d 58 e1 ca bd
       -0.042175874 -0.03070487 0.034926653 -0.09906262
000270 94 d7 12 be 80 39 9d bb 60 56 7c 3b 00 b0 71 b9
       -0.14340049 -0.0047981143 0.0038503632 -0.00023049116
000280 7d 56 6f 40 46 27 7b 40 25 0b 1a 3f 30 fe 6a 3f
       3.7396538 3.924272 0.60173255 0.9179411
000290 83 ba 20 40 b0 cf aa 3f be 1d 6f 40 70 a1 61 40
       2.5113838 1.3344631 3.7361903 3.5254784
0002a0 56 23 53 40 7c 52 44 40 14 90 85 40 80 04 2b 40
       3.2990317 3.0675344 4.1738377 2.6721497
0002b0 c2 8c f5 3f 89 8c 9d 40 8c cf 89 40 52 fd 76 40
       1.9183581 4.923405 4.3065853 3.8592114
0002c0 97 4c 31 3d c1 b6 16 3d 48 07 11 3e 78 5b 95 3e
       0.043285932 0.03679538 0.14162934 0.29171348
0002d0 91 2f 84 3e aa bc dc be a0 60 3f bb b4 e8 08 3c
       0.2581754 -0.4311269 -0.002920188 0.008356262
0002e0 e5 98 de bc 20 a4 0d bd 0a 9d 12 3e e4 6c 99 bf
       -0.027172515 -0.03458035 0.14317718 -1.1986356
0002f0 14 dd 76 3e f5 fd fb bf e0 3c 0e bb 55 48 87 bc
       0.24107772 -1.9686877 -0.0021703765 -0.016513983
000300 34 c4 89 3c 6c c5 e0 3c 36 95 7d bd 6c 2b b8 bd
       0.01681719 0.027437888 -0.061909877 -0.08992657
000310 90 30 1d bc ab a2 b6 3d 24 4d c9 3c d6 21 1d bd
       -0.009594098 0.08917745 0.024572916 -0.038362347
000320 6c 65 ea bc 0b 6c 13 3e 5c 61 2f 3e 0c 42 23 3e
       -0.028612815 0.14396684 0.17126983 0.15943164
000330 f8 21 87 3e 34 34 f9 bc 80 6e 5b 3e 56 21 20 bd
       0.26393104 -0.0304204 0.21428871 -0.03909429
000340 a4 4d 27 bd c0 1d 60 3c 0a f2 31 3f 51 3b a6 be
       -0.04084553 0.013678968 0.6950995 -0.3246713
000350 45 fb 8c 3f e3 c5 99 3e 80 de 16 bd 00 a9 61 ba
       1.1014181 0.30033788 -0.036833286 -0.0008608252
000360 ec 8a 91 bc 00 97 2a 3b 88 ec 04 3f d1 29 17 bf
       -0.017766438 0.0026029944 0.5192342 -0.5904818
000370 d2 d3 bd 3e b4 38 c8 3e 9b 93 6b 3d 28 4d bc 3c
       0.3707567 0.3910576 0.057513814 0.02298601
000380 13 2f d3 bd 50 cb 33 be f0 ad 9e bb 6f ab b5 3d
       -0.10311713 -0.17558026 -0.0048425123 0.08870589
000390 e0 1d 6b bb 8a c5 d1 3d 80 81 8a ba a0 89 e6 3b
       -0.0035875961 0.10242756 -0.0010567158 0.007035449
0003a0 9b 75 cc bd 92 4c 2e be a0 ed 06 be ed d8 eb bd
       -0.09983369 -0.17021397 -0.13176584 -0.11515985
0003b0 96 df 25 3e 55 0b 99 3d b0 9c 0b 3e f8 01 96 3d
       0.16198573 0.074728645 0.1363399 0.07324594
0003c0 66 65 d3 bd 3a 56 b8 be 13 b7 d2 3e 2e 6b 06 bf
       -0.103220746 -0.36003286 0.411553 -0.52507293
0003d0 d3 43 84 3f 7e 6d 99 3e 56 04 07 3e 30 a5 a0 bd
       1.0333198 0.29966348 0.13185248 -0.07844007
0003e0 b2 f3 06 be 0b 25 cd bd f3 5f b7 bd df b1 48 be
       -0.131789 -0.10016831 -0.08953848 -0.19599102
0003f0 5f 70 bb 3e 04 40 c9 be 3d b8 30 be 79 b4 4c be
       0.3660917 -0.39306653 -0.17257781 -0.1999072

head.bias f4 [2]
000000 bd c5 6d 40 1f da 5a 40
       3.715194 3.419563
