models/cnn/reward_287.pt (torch_old, 167153 bytes, 20 tensors)

conv1.weight f4 [16, 3, 5, 5]
000000 17 aa a0 bd 39 43 14 be 0f d1 52 bc b5 46 c1 3d
       -0.07844942 -0.14478768 -0.012867226 0.094373144
000010 0e 76 9d 3d 5a 16 b1 bd 53 11 fb 3c 7c 0b fb 3d
       0.07688533 -0.08646841 0.03064791 0.1225805
000020 f3 26 c4 3d 9b 57 c5 bd 6c 00 ac 3d 5e 38 86 bd
       0.095777415 -0.0963585 0.08398518 -0.0655372
000030 3f fb 17 be 1b 07 3f bd 8c 7c d5 3d 2c 63 25 3e
       -0.14841937 -0.046637636 0.10424146 0.16151112
000040 03 fd 97 bc 23 51 22 be a0 09 8a bd 26 de 13 3d
       -0.018553263 -0.15851264 -0.06740117 0.03610053
000050 f1 94 b3 bd 8c dd 00 3e 72 84 a6 3d 4c 80 93 3d
       -0.08768643 0.12584513 0.08130731 0.07202205
000060 a9 86 ca 3d e0 fc a5 3d d3 36 34 be af 7c e7 bd
       0.09888966 0.08104873 -0.17599039 -0.113030784
000070 a7 12 23 be c4 f3 36 be 83 b5 5a bd aa 34 d5 bd
       -0.15925084 -0.17866427 -0.05339576 -0.104104355
000080 67 02 e5 3c 3b 5e 93 bd 34 60 f0 bd 22 d4 9a bb
       0.027955247 -0.071957074 -0.11737099 -0.0047249952
000090 09 6d f0 3d 49 65 a8 3c 7d 89 59 bd 98 b6 fd 3d
       0.11739547 0.020556109 -0.053109635 0.123883426
0000a0 4b 3f 3f 3d 14 83 c0 3d c1 5c f1 bc db e4 0a 3e
       0.04669122 0.09400001 -0.029463174 0.13563864
0000b0 39 11 c6 bd d5 ce 22 3c 00 8e 93 3d 30 53 f3 bc
       -0.09671254 0.009937008 0.07204819 -0.029702753
0000c0 58 9b 21 3e fb a2 9f bd 90 9d 24 3c 28 da 3f be
       0.15781915 -0.07794758 0.010047331 -0.18735564
0000d0 fd b0 04 bd ea e6 81 be 39 cd 60 bd 5d ca 63 be
       -0.03239535 -0.25371486 -0.054883216 -0.22245164
0000e0 e8 ed 61 bd f7 53 d2 3d 8e df 2c bd 8a 10 09 be
       -0.055158526 0.10269921 -0.042205386 -0.13385215
0000f0 79 ee 96 3d 5d d7 46 3e 4a 1f 28 be 0e a6 8e 3c
       0.07369704 0.19418092 -0.16418186 0.017413165
000100 31 e5 45 3e a8 8b b5 3d 14 c9 de bc 0e 0d 2b 3a
       0.19325711 0.08864528 -0.02719549 0.00065250776
000110 0d f7 41 3e cf 0b 84 3d 8a c1 87 bc b1 7c 0e 3e
       0.18941899 0.06447565 -0.016571779 0.13914753
000120 31 ad bd 3d 1b 49 85 3d 62 d0 80 3c ff db 03 3e
       0.09261549 0.065080844 0.015724365 0.1287689
000130 7e f0 fe 3d 5d ee fd 3c d0 9e 02 3e 6b d3 75 bd
       0.12448214 0.03099745 0.12755895 -0.060016077
000140 29 a3 27 3e 0e 15 8f bd 00 42 81 3d bf bd 13 bd
       0.16370834 -0.06986438 0.063114166 -0.036069628
000150 c3 81 37 bd 38 3b 08 be 57 dc b6 3d 9d e5 6a 3e
       -0.044801485 -0.1330384 0.08928745 0.22939153
000160 63 62 06 3e 31 ab 04 be b0 87 48 be ba ef e5 3d
       0.13123469 -0.1295593 -0.1958301 0.11227365
000170 bd e6 14 be dc 2c c3 3c 75 91 1b 3e e7 15 a7 bc
       -0.14541145 0.023825102 0.15192206 -0.020396186
000180 8f 23 7a 3d 5b 35 4b bd 94 78 f8 bd a3 be 78 be
       0.061069068 -0.04961143 -0.121323735 -0.24291472
000190 a9 3e 2a 3e 21 bf 6e 3e b7 19 0c 3d 4f 30 a9 3d
       0.16625465 0.23315097 0.03420421 0.08261167
0001a0 33 92 0d be ea a6 a4 3b ac d8 bf be 6f 52 cf 3d
       -0.13825302 0.0050247805 -0.37469995 0.10123145
0001b0 1a f5 25 3e 85 a7 1f 3d 11 37 fc 3d bc 76 fc 3d
       0.1620678 0.03897812 0.123151906 0.12327334
0001c0 86 7d 3e 3e a4 03 81 bd 32 03 95 bd 2e 9a e2 bd
       0.18602571 -0.062995225 -0.07276 -0.11064564
0001d0 6e f2 44 bd b7 23 be bd d0 58 2d be c4 cc 01 3e
       -0.04808276 -0.09284156 -0.1692841 0.12675768
0001e0 36 c8 31 bd 26 2f ed 3d a0 e2 c4 bd 85 78 0e bd
       -0.043403827 0.115812585 -0.09613538 -0.034782905
0001f0 7a 5d 96 bd da c4 c8 3d 8c 3e d6 3e 34 7d 82 bc
       -0.07342048 0.098031715 0.41844594 -0.015928842
000200 fa 98 d4 3c f7 da 21 bd 5e 63 29 3e 14 4f 14 bf
       0.025951851 -0.03951546 0.16541812 -0.57933164
000210 4c a5 20 3d 19 20 61 3e 5a 7e 71 3e ab ac 9e bd
       0.03922014 0.219849 0.23583356 -0.077477776
000220 a3 c4 23 be 83 2b 0d 3e 68 42 4d bd 88 8b 90 be
       -0.1599298 0.1378613 -0.050112158 -0.28231454
000230 f1 99 81 be bc 84 ba bd 32 77 e9 be ed 1e 11 bd
       -0.2531276 -0.09107348 -0.4559875 -0.035429884
000240 3e 48 50 3e 78 1c 01 3e 85 cb 9b 3e 06 d1 0a 3e
       0.20340058 0.12608516 0.3042871 0.13556299
000250 9f 58 5b 3b 4f fe 05 bd 9c 8a b1 3d ad 9f 4e 3e
       0.003346957 -0.03271323 0.08669016 0.20178099
000260 70 06 f1 bd d6 1b 95 3c c6 c3 df 3d 53 a4 bc bc
       -0.11768806 0.01820175 0.10926013 -0.023027575
000270 ac 06 03 be 10 e2 12 3e 1b 94 41 3e c8 fa 83 bd
       -0.12795514 0.14344049 0.18904154 -0.06444317
000280 f5 08 bf 3d 3e a4 6c bd 78 5e 51 bd d4 aa 06 3e
       0.0932788 -0.05777382 -0.051115483 0.13151103
000290 29 12 05 3c b0 de 44 3e bd f6 0d 3e 85 46 49 be
       0.0081220055 0.19225574 0.13863654 -0.19655807
0002a0 d0 c7 3b bd ab f1 ff bd 4a 5f 8b 3d 7f e3 65 bd
       -0.045844853 -0.124972664 0.06805284 -0.05612516
0002b0 aa c7 9a bd 44 c3 2d 3c 1e c4 27 3e 2b 85 41 3d
       -0.07557614 0.010605637 0.16383407 0.04724614
0002c0 ac 7a 5c 3e 43 21 1a be 9a 5d 33 be bb 92 32 3d
       0.2153117 -0.15051751 -0.17516175 0.043596964
0002d0 1a 04 5e 3e 15 70 94 be 77 76 99 3d 1a ac 48 ba
       0.21681252 -0.28991762 0.074932985 -0.00076550397
0002e0 a3 ca 8f be a4 af e8 3d 80 a8 8c be a5 a0 59 3e
       -0.28084287 0.11361626 -0.27472305 0.21252687
0002f0 c1 84 2a 3d e6 04 33 3e 7f 24 a6 3d af 0e 8c 3e
       0.04163051 0.17482337 0.0811243 0.27354953
000300 d5 e8 09 be d4 5a 60 be f8 8b 0c be bb 7c 44 be
       -0.13467725 -0.21909648 -0.13725269 -0.19188206
000310 6a 2d da bc 78 1b 8b bd 14 38 c2 3d 6d 2e fe 3d
       -0.026632983 -0.067923486 0.09483352 0.12411199
000320 c9 9e 18 be 2f 48 ee 3e 93 e7 16 be 8c d9 98 be
       -0.14904322 0.46539447 -0.14736776 -0.29853475
000330 6e d6 fa bd 62 9e 2d 3e 24 59 6c be 25 22 e9 3d
       -0.122479305 0.1695495 -0.2308088 0.11383466
000340 c1 d1 85 3d 22 10 8b be 86 fe 0e 3e 68 7b 86 be
       0.06534148 -0.27160746 0.1396428 -0.26266026
000350 64 d7 9d 3e ee e0 f7 3d 60 a9 1f 3e ec ee 5f be
       0.30828393 0.12103449 0.15591955 -0.21868485
000360 75 8e d9 3e 03 6d 37 3e 56 d0 9b be 70 4c 94 be
       0.424915 0.17912678 -0.30432385 -0.28964567
000370 29 34 ea be c3 ca ac be 8d f4 a0 be c3 89 9f 3e
       -0.4574292 -0.33748445 -0.31436577 0.3115979
000380 aa ed c4 3e b5 7b 36 bd 53 1d 2a 3e 76 b7 77 3e
       0.38462573 -0.04455157 0.16612749 0.24191079
000390 9f 9f 1f be 72 83 e0 3c 8c 4b 0d be 62 5d be bb
       -0.15588234 0.027406428 -0.1379835 -0.005809472
0003a0 b1 f3 a9 bd 8b d4 0a bd b4 be e7 3d 50 86 cc 3c
       -0.082984336 -0.033894103 0.113156706 0.024966389
0003b0 c7 f3 a8 3e e3 06 33 3e 9f 61 57 be 33 b0 85 be
       0.32998487 0.17483096 -0.21033333 -0.26110992
0003c0 7a 8e ca bd c1 17 9d be 15 b0 35 3d b0 cd 0f 3e
       -0.098904565 -0.30682185 0.044357378 0.14043307
0003d0 ec 08 4d 3d 61 70 a4 3d f2 58 1c 3d bb 8e 1a be
       0.050057337 0.08029247 0.038170762 -0.1509351
0003e0 e0 11 99 bc 86 87 74 3d 53 9e 12 3d 03 1b 4b bd
       -0.018685281 0.059699558 0.03579552 -0.049586307
0003f0 0c be 95 3d 3e fe 94 bd 16 27 19 be f6 38 11 be
       0.07311639 -0.07275055 -0.14956316 -0.14181885

conv1.bias f4 [16]
000000 3c d1 b0 3d 86 43 b9 bd 97 83 74 bd 19 71 92 bd
       0.08633658 -0.09046082 -0.059695806 -0.07150478
000010 8f 25 7e bc d2 55 35 bd 06 5e d2 bc 5c 82 94 3c
       -0.015511884 -0.044271298 -0.0256796 0.018128566
000020 4b f7 99 bd 7b 46 48 3d e9 6e a3 3d f0 0f 93 3d
       -0.075178705 0.04889534 0.07980139 0.07180774
000030 57 70 a6 3d 17 89 11 3c be 3e 19 3c a3 3f 94 bd
       0.08126896 0.008882782 0.009353338 -0.072387

bn1.weight f4 [16]
000000 b9 d0 ad 3e 29 53 11 3f 3b 06 07 3f dd 82 2a 3f
       0.33948305 0.5676752 0.5274388 0.6660593
000010 d8 25 dc 3e da 13 3d 3f 19 2b c0 3e 86 86 1e 3e
       0.42997622 0.73858416 0.3753288 0.15481004
000020 0e 14 a0 3e 55 4b fa 3e be 9a 1f 3f 45 9a 37 3f
       0.312653 0.488856 0.6234549 0.7171977
000030 72 36 3c 3e 3e 40 d9 3e 52 63 c0 3e 27 27 02 3f
       0.18380144 0.42431825 0.37575775 0.5084099

bn1.bias f4 [16]
000000 5b ec 93 3e 9f 0f da 3e 31 a6 40 3e f2 8b 1c bf
       0.28891262 0.42590043 0.18813397 -0.6115104
000010 a2 20 7e 3e 80 a1 c4 be 9f b2 a9 be ad 55 09 3e
       0.24817136 -0.38404465 -0.3314409 0.13411589
000020 95 36 67 3e 9b 03 ec 3e 43 09 05 3f 46 8f 1e bf
       0.22579415 0.460965 0.5196726 -0.6193737
000030 b1 4a 4a 3e 3f 31 6e 3e ad 57 ea 3e 2c 40 e8 3e
       0.19755055 0.23260973 0.45770016 0.4536146

bn1.running_mean f4 [16]
000000 09 c5 b0 3d da 69 b9 bd 65 9f 74 bd c6 71 92 bd
       0.086313315 -0.09053393 -0.059722323 -0.07150607
000010 0b 3c 7b bc 4e e7 34 bd b1 80 d2 bc 47 78 94 3c
       -0.01533414 -0.0441659 -0.02569613 0.018123759
000020 be e0 99 bd 21 19 48 3d f8 60 a3 3d 1a 25 93 3d
       -0.07513569 0.04885209 0.0797748 0.07184811
000030 52 83 a6 3d 21 c0 12 3c c4 39 17 3c 22 1d 94 bd
       0.08130516 0.00895694 0.009230081 -0.07232119

bn1.running_var f4 [16]
000000 9c 82 36 3a fc c4 a4 3a c9 b9 c1 3a bf 8f 54 3a
       0.00069622113 0.0012570913 0.00147801 0.0008108578
000010 03 bd a2 3b 4e c8 b4 3a dd 3e fe 39 a9 62 5c 39
       0.0049663796 0.0013792606 0.00048493492 0.00021017589
000020 18 42 38 39 4e 59 97 3b 67 11 bd 3b 53 61 82 3b
       0.00017572229 0.0046188002 0.005769897 0.003978887
000030 85 b2 6d 3a 0f 08 35 3b 70 52 35 3b c3 68 9b 3b
       0.0009067434 0.0027623211 0.0027667545 0.004742713

conv2.weight f4 [32, 16, 5, 5]
000000 7d 0d 02 bd 96 c1 3f bd 16 c7 d2 bc 54 1a 8a 3d
       -0.031751145 -0.046815477 -0.025729697 0.06743303
000010 4a a5 97 bb c5 45 2f 3c 22 3a 0f bd e6 1d 1a 3b
       -0.0046278583 0.010697787 -0.03496755 0.0023516356
000020 08 db 7b bc 12 f0 3f 3c 1a 65 3d 39 dd 84 da bc
       -0.015372045 0.011714952 0.00018062108 -0.026674682
000030 66 f7 46 3d d3 7f f8 3c 1e 5c d9 3d d7 58 66 3b
       0.04857578 0.030334389 0.10613273 0.0035148168
000040 fc f3 24 3d 44 b1 90 3c ff 9c 4d 3d 98 bc 37 3d
       0.040271744 0.017662652 0.05019855 0.04485759
000050 bd 48 f3 3c d7 02 f4 bc a5 46 08 3c 39 07 97 bd
       0.02969777 -0.02978651 0.008317624 -0.073744245
000060 4e 92 bc bc ca e6 6b 39 34 5e 4b 3c 5e 75 46 bc
       -0.023018982 0.00022497322 0.0124125965 -0.012112943
000070 bb b4 5b bd 7b 38 ee bd 06 e4 09 bd 44 04 aa 3d
       -0.053639155 -0.116318665 -0.033664726 0.08301595
000080 00 c0 9e bc 62 15 2c bd 2e 1c 0f bc 64 7e c4 bd
       -0.019378662 -0.04201258 -0.008734746 -0.095944196
000090 bc 5a 97 3d 8a ae 8d 3d a6 a5 92 3c 4d 8b 30 3e
       0.07390353 0.06918056 0.017901253 0.17240639
0000a0 86 22 f2 3c df 6d e4 bc 8e 1c a8 3d e5 c2 0f bd
       0.029557478 -0.027884422 0.082085714 -0.035097975
0000b0 5e 8c c7 bd e7 6a 58 bd 01 49 b4 be 17 83 9e bd
       -0.0974357 -0.052836325 -0.35211948 -0.07739847
0000c0 f4 06 ce bc b6 32 97 3d d0 61 10 3d 66 b7 b1 bd
       -0.0251498 0.07382719 0.03524953 -0.086775586
0000d0 53 09 50 bd 68 29 3d 3d 60 d5 00 bd cf 5a a7 3c
       -0.050790142 0.046182066 -0.03145349 0.020429043
0000e0 de 68 01 3e 82 fa 0b be d9 40 e9 3d bf d5 33 be
       0.1263766 -0.1366978 0.11389322 -0.17562006
0000f0 14 9a fa bd b6 40 46 bd ce f3 0b be 17 e7 1f 3d
       -0.12236419 -0.048401557 -0.13667223 0.039038744
000100 34 53 93 bd cb 69 4f 3e dd e0 0d bc 6f 25 a3 bc
       -0.07193604 0.202552 -0.008659569 -0.01991531
000110 16 f2 b3 bd 38 19 1d 3e 4b 5b d7 bc 7f 82 b2 3c
       -0.087864086 0.15341651 -0.026288649 0.021790741
000120 d1 c4 9c bd 57 b4 13 be b8 00 01 bd c9 f1 b3 bc
       -0.07654727 -0.14424263 -0.031494826 -0.021965878
000130 0d 3d 62 3c 09 38 4d 3d 5b 36 eb 3d 5f 4d ab bd
       0.013808501 0.050102267 0.11484977 -0.08364367
000140 7b 8f 94 bd cf 25 c0 bd 93 9c a2 bd 94 ca 03 be
       -0.07253929 -0.093822114 -0.079400204 -0.12870246
000150 b7 46 55 3d c8 2c 2b bd 07 c3 b1 bd ef be a8 bd
       0.052069392 -0.041790754 -0.08679777 -0.08239543
000160 c6 22 53 be ef 12 4d bb 74 e8 3d bd 2d 21 0b be
       -0.20618734 -0.0031291803 -0.046364263 -0.13586874
000170 8c a3 a1 bd c9 e5 97 bd 58 57 a1 3d fa 65 06 3e
       -0.07892522 -0.07416875 0.078779876 0.13124838
000180 1c 28 42 bd 26 85 9f bc 5c f0 af bd d7 89 6b 3d
       -0.047401533 -0.01947267 -0.08590767 0.0575045
000190 92 a5 76 bd a4 58 8a bc 02 66 14 bd 30 a8 cd bd
       -0.060216494 -0.01688797 -0.036230095 -0.10041845
0001a0 fb e8 b0 3c 35 c8 49 bd f8 33 35 3c 69 24 f7 3c
       0.021595469 -0.049263198 0.011059754 0.030168729
0001b0 c0 fc bd bd ec a0 29 bd c2 6c 95 3c 77 64 7d 3d
       -0.09276724 -0.041413233 0.018240336 0.06186339
0001c0 8e 86 02 3c 6d 53 b0 3d c1 95 95 bd be ea 91 39
       0.007966651 0.08609662 -0.07303954 0.00027831452
0001d0 19 58 0e be 86 50 ac bb b4 a2 fa bb 98 05 46 3d
       -0.13900794 -0.0052586226 -0.0076487903 0.04834518
0001e0 8b 54 09 bd df 3f 88 bd f5 77 90 bd 68 3c 75 bc
       -0.033527892 -0.066528074 -0.0705413 -0.014968015
0001f0 17 54 7d bc 97 f8 86 bd 73 1e 85 bd 1b 37 62 be
       -0.015461943 -0.065903835 -0.06499948 -0.22091334
000200 0d c0 87 3d 10 62 a1 3d 43 09 64 be cf f7 2a bc
       0.06628428 0.07880032 -0.22269158 -0.010435059
000210 fa b3 09 3d 40 90 53 be b2 b4 83 be 60 69 9b bb
       0.033618905 -0.20660496 -0.25723797 -0.0047427863
000220 eb fe 0e 3d e5 a4 bb 3b ef 94 95 3d 1e ee ca 3d
       0.034911077 0.005726444 0.073037975 0.099086985
000230 e0 39 16 be fe 61 08 be 32 5a 16 3e e7 14 7a 3b
       -0.14670515 -0.13318631 0.14682844 0.0038159431
000240 98 17 4b 3e 68 72 03 be 3b 7b 94 bb ee 40 3e 3d
       0.19833219 -0.12836611 -0.004531292 0.04644864
000250 ee f5 43 bb 88 49 08 bc 84 0a 9f bc cd 40 8d bd
       -0.0029901224 -0.0083183125 -0.019414194 -0.068971254
000260 ad ee 70 bd 1c 1c 6c bc 48 fb 96 ba ff 56 8f 3c
       -0.05882137 -0.014410999 -0.001151898 0.017497538
000270 8a f7 35 bc 3a e1 56 3d b3 8b 1e bd ad 2f 36 bd
       -0.011106381 0.052460887 -0.038707446 -0.04447906
000280 a9 b4 da 3c f4 34 26 3d f5 2f 92 bc d7 e6 c0 bd
       0.026697474 0.040577844 -0.017845133 -0.09419029
000290 01 45 fa bb 8c 8b 83 3c 1f 9b 30 3b 94 3b 61 bc
       -0.0076376204 0.016057752 0.0026947928 -0.013747115
0002a0 b4 b9 49 bd 8b 91 c3 3c 05 3c 6c bd 44 49 c5 bc
       -0.049249366 0.023873111 -0.057674427 -0.024082787
0002b0 50 e0 73 3c ab 1b 74 bd a5 a5 69 bc 84 da 78 bd
       0.014885023 -0.0595967 -0.014260684 -0.060755268
0002c0 51 ce 80 bc d2 71 01 bc 46 a8 fc 3c da c8 98 bb
       -0.01572338 -0.007900672 0.030841958 -0.0046626152
0002d0 db de cc bc 25 0b 32 bd 95 35 c1 bc b0 f3 a0 bc
       -0.02500861 -0.04346766 -0.02358512 -0.01964745
0002e0 02 1d 98 3c 35 df db bc 04 a6 fc ba 40 ff 56 3d
       0.01856852 -0.026839832 -0.0019275551 0.05248952
0002f0 50 98 e6 3b 4b 1a b7 3d 60 5f 9d bc 3e 31 2e bc
       0.0070372 0.08940562 -0.019210517 -0.010631857
000300 c7 a9 e4 bc 80 d1 0c bd 20 83 5d 3d 01 25 e6 3a
       -0.027912987 -0.034379482 0.05408013 0.0017558635
000310 27 72 c7 bc 66 82 ac 3c f3 ca a7 bc 34 d9 63 bd
       -0.024346424 0.021058273 -0.020482516 -0.055627063
000320 a8 8a 43 3c f3 c9 05 3d 5c 50 1a bd b2 e9 86 3c
       0.011934914 0.032663297 -0.037674293 0.016468856
000330 6b 3c 83 3a a4 bb 42 3c ac a0 38 bc 5d e4 41 bd
       0.0010012513 0.011885557 -0.011268776 -0.047336925
000340 64 ee 88 3c 81 2c 67 bd 15 1d b3 bc 6a e4 25 3d
       0.016715236 -0.056438927 -0.021864453 0.040501036
000350 91 be 49 bc c8 8e d6 3a 6f 1d ec bb be 48 3b 3d
       -0.012313501 0.0016369456 -0.007205657 0.04572367
000360 e0 a3 46 bc de c3 85 bd a7 13 56 bd d0 c2 8d bd
       -0.012124032 -0.06531499 -0.052264836 -0.06921923
000370 5f c2 48 bd 81 64 b5 bd 6e 26 e6 3b 69 a3 ac bd
       -0.04901349 -0.0885706 0.007023624 -0.084296055
000380 39 10 3b 3d 02 95 dc bd 1c 65 ca bd ab 4a 5d bc
       0.045669768 -0.107706085 -0.09882566 -0.013506572
000390 15 6e 53 bd 71 26 84 be b9 46 cd 3c 3a 53 22 3c
       -0.051618654 -0.25810578 0.025058137 0.009907538
0003a0 08 ab ca bd 2a 0d 9a bd 7a 5c d0 bb 01 e7 3e 3d
       -0.09895903 -0.07522042 -0.0063586803 0.04660702
0003b0 3d 45 7e bd 9b 8c fd 3d 46 7b 9c bd 22 a1 35 bc
       -0.06207775 0.12380334 -0.076407 -0.01108578
0003c0 4e fb 5c bd 01 95 4c 3d c9 54 02 3d 9b e1 b3 bd
       -0.0539506 0.04994679 0.03181914 -0.08783265
0003d0 d9 0f a0 3d 4c 61 d8 bc 1c ce 9c 3c fe ad 3a bd
       0.07815523 -0.026413582 0.01914125 -0.045576088
0003e0 cf b6 c8 bc 91 ca f3 bd 5d 47 28 3c 07 42 f2 3c
       -0.024501232 -0.11903871 0.010270921 0.0295725
0003f0 0c 6b 52 bd b0 c1 c6 bd c7 58 95 bd 3c 81 b8 ba
       -0.05137162 -0.09704912 -0.072923236 -0.0014076601

conv2.bias f4 [32]
000000 72 6e 44 bd 9e c4 1a bd e4 5e 04 3d 32 41 3a bc
       -0.04795689 -0.037785165 0.032317057 -0.011368083
000010 3c ac 1b bc 48 dd 00 3b 85 a4 da bb 6c 83 e6 bc
       -0.009501513 0.0019663144 -0.0066724443 -0.028138839
000020 da b7 c0 3c 3b 3f c1 ba cf ca 06 3a 05 ad c9 bc
       0.023525167 -0.0014743576 0.0005141915 -0.024618635
000030 99 22 08 bb db 51 f9 bc 32 1c 15 bd ae a6 a8 bc
       -0.0020772575 -0.03043454 -0.036403842 -0.020587292
000040 ae 62 11 bd ef 6f ce 3b fa d1 0b 3c 40 47 20 3d
       -0.0354945 0.0062999646 0.008533949 0.03913045
000050 6a f0 20 bd b0 07 40 3c cd a6 4c bd 53 dd 0a 3d
       -0.039291777 0.011720583 -0.04996376 0.033902477
000060 e6 5b 00 bd 74 de 24 bd 2b 64 8a 3c df 65 82 3c
       -0.03133764 -0.04025121 0.016893467 0.015917717
000070 36 76 1a bd 6e b5 2b 3d 87 cb f7 3c 07 f3 21 bd
       -0.03771039 0.04192107 0.030248417 -0.03953841

bn2.weight f4 [32]
000000 bb a7 2f 3f c3 1f 36 3f c8 0c 61 3f ab c2 0d 3f
       0.6861531 0.71142215 0.8791013 0.55375165
000010 a3 30 79 3f a5 5b 7b 3f 4d 81 64 3e 6c 0c 3d 3f
       0.9733984 0.98186713 0.2231495 0.7384708
000020 07 ad 99 3e 1b 34 9d 3e 63 33 36 3f 84 41 7f 3e
       0.30014822 0.30703816 0.7117216 0.24927336
000030 ef 89 35 3f cc 6c ac 3e d6 66 01 3f 75 1a 73 3e
       0.70913595 0.33676755 0.5054754 0.23740561
000040 b0 8d 43 3f 53 f3 41 3e d2 08 ca 3e 5f 4c 18 3f
       0.7638807 0.18940477 0.39459854 0.59491533
000050 09 05 f8 3e 02 ff 0a 3f d8 e8 6a 3e d2 14 61 3e
       0.48441342 0.5429536 0.22940385 0.21980599
000060 59 15 9f 3e f2 e0 68 3f 42 a0 a9 3f 5c b4 21 3e
       0.31070974 0.9096824 1.3252032 0.15791458
000070 62 52 9c 3f 93 6d 96 3f b2 00 42 3f ec 01 87 3f
       1.2212641 1.1752189 0.7578231 1.0547462

bn2.bias f4 [32]
000000 91 af f1 bd c3 01 d9 3b c8 ea b3 bd 53 b5 2a bc
       -0.11801065 0.0066225245 -0.08785015 -0.010419208
000010 25 2c a1 bd 20 9d 83 bd 65 74 30 bf f0 48 f8 3c
       -0.07869748 -0.064264536 -0.68927604 0.030308217
000020 39 55 e5 bb 47 d3 ec 3c 8c 1e 94 bb a8 65 9b be
       -0.0069986847 0.028909339 -0.004520243 -0.30350995
000030 ce 85 1c bd d4 b3 97 3d 9e b4 c7 bd c4 c9 ef bc
       -0.038213544 0.07407346 -0.09751247 -0.029271014
000040 85 40 cf bd 25 ea 16 bf f8 cf 61 bc 66 88 ce bd
       -0.10119728 -0.58951026 -0.013782494 -0.1008461
000050 b3 01 22 be 24 96 5a bd 30 4c 2e bf 07 22 1b bf
       -0.1582096 -0.05336584 -0.68085 -0.60598797
000060 b4 74 ac bd d1 76 81 3c b0 e3 ca be 17 83 2d be
       -0.08420697 0.015803726 -0.39626837 -0.16944538
000070 7a c5 84 be 58 00 54 be 60 18 57 be 87 5f 56 be
       -0.25931913 -0.20703256 -0.21005392 -0.20934878

bn2.running_mean f4 [32]
000000 ea 59 d1 bf 85 eb ea bf b1 34 db bf 21 a0 f0 bf
       -1.6355565 -1.8353125 -1.7125455 -1.8798867
000010 c0 93 f3 bf c1 34 4e c0 10 cc 21 3f fb e8 18 c0
       -1.9029465 -3.2219698 0.63202 -2.38922
000020 dc 89 d5 be 29 d4 91 bf 80 12 3b c0 d0 03 d4 3c
       -0.4170674 -1.1392871 -2.9230042 0.025880724
000030 dc c9 e3 bf 42 43 68 bf fa 41 af bf 6e 19 f2 be
       -1.7795978 -0.9072763 -1.369201 -0.47285026
000040 a8 e2 c7 bf a9 d2 d0 3f ba 45 2a bf b8 af c6 bf
       -1.5616045 1.6314288 -0.66512644 -1.5522375
000050 dd f7 96 bf 29 e9 a8 bf b7 76 b2 3f 10 05 fb 3f
       -1.1794392 -1.3196155 1.3942479 1.961092
000060 a8 b8 b8 bf bc dc ca bf dc ae 33 c0 5a 38 7f 3f
       -1.4431353 -1.5848613 -2.8075476 0.9969536
000070 a8 55 41 c0 c3 13 1b c0 4f eb 33 c0 e8 f7 57 c0
       -3.020853 -2.4230812 -2.811237 -3.374506

bn2.running_var f4 [32]
000000 e4 9d 37 3f 40 ab 6d 3f 2b b8 8a 3f 13 17 22 3f
       0.71725297 0.9283943 1.0837454 0.6331646
000010 63 2a 8c 3f ad 9c 20 40 6d 03 89 3e 37 fd 8d 3f
       1.0950435 2.5095627 0.26760426 1.10929
000020 d8 ae ff 3d 57 99 bb 3e f1 de bc 3f 67 45 62 3e
       0.12484521 0.36640427 1.4755536 0.22096787
000030 28 ec 38 3f d5 f7 35 3e 53 f7 bf 3e 78 52 b6 3e
       0.72235346 0.17770322 0.3749338 0.35609794
000040 f7 8c 60 3f f7 11 f9 3e 17 88 56 3e d2 01 08 3f
       0.87715095 0.4864652 0.20950352 0.5312778
000050 3c 55 d6 3e af fb 11 3f 49 e5 d4 3e f5 32 f8 3e
       0.41861904 0.57024664 0.4158118 0.48476377
000060 42 b6 be 3e 09 77 a6 3f 59 6f a1 3f 11 a1 bc 3e
       0.37248427 1.3005077 1.2612106 0.36841634
000070 d3 c2 0c 40 11 13 a9 3f 3e da 94 3f 4e 24 c9 3f
       2.1993911 1.3208944 1.1629102 1.5714204

conv3.weight f4 [32, 32, 5, 5]
000000 f7 1d bf 3d b3 d2 e4 3c 87 71 a0 bd e9 9f 9b bb
       0.09331887 0.0279325 -0.078341536 -0.0047492874
000010 f5 42 e2 bd 82 4c e9 bb c0 51 22 3d 22 81 d5 bc
       -0.11047927 -0.007119716 0.039628744 -0.026062552
000020 55 23 93 bb fd b7 df bb ae 2e 67 bd bc 0f ae bd
       -0.004490296 -0.006827353 -0.056441 -0.08499095
000030 8f 0f e8 bd 90 d6 09 bd bb 27 21 3d 66 4b b8 bc
       -0.113310926 -0.03365189 0.03934453 -0.02249689
000040 3f cd 19 3d 07 06 a4 bc c6 9f 46 bd 52 d9 fd 3c
       0.037549254 -0.020022405 -0.048492216 0.030987415
000050 22 d4 56 bc 6c 8e a1 bc 18 3f ce bd b5 e5 92 3d
       -0.0131121 -0.019721232 -0.10070628 0.071727194
000060 6b 27 35 bc b1 44 b7 3d 9d 52 4e 3d 55 5a 3a 3a
       -0.011056761 0.08948649 0.050371755 0.00071087974
000070 bf d3 2a 3c 0b 08 97 bd 1c 60 7f 3d 86 74 90 bc
       0.010426461 -0.07374581 0.062347516 -0.017633688
000080 0f 2f 5c bc 09 5d 3d bd c8 60 12 bd fa 45 dd bd
       -0.013438954 -0.046231303 -0.03573683 -0.108043626
000090 7d be 12 3d a1 b1 5a bd a7 02 1e 3c ee 4f 25 3c
       0.035826195 -0.053392056 0.009644187 0.0100898575
0000a0 b2 0a b2 bd a2 a9 bc 3c 5c a9 0a be 99 da 5f 3c
       -0.08693446 0.023030106 -0.13541168 0.013662958
0000b0 be 37 2c bd dc f7 9c bc 99 6b f0 3d 0e 05 01 bb
       -0.042045347 -0.019161157 0.117392726 -0.001968685
0000c0 e2 f5 98 3d 7c c2 13 3c c0 f1 bb 3c 53 c7 16 3e
       0.074687734 0.009018537 0.022942424 0.14724474
0000d0 ca 81 db 3d fd 71 f0 3d c2 5e ab bc 59 87 7f 3c
       0.10718115 0.117404915 -0.020919207 0.015596234
0000e0 15 e6 e8 3c d1 6c 93 3d f7 83 d0 bd b0 eb aa bb
       0.028430024 0.071984895 -0.1018142 -0.0052160844
0000f0 1f 75 4b 3c ba d0 23 bd 0c 2f 4f bd 4e 53 bd bc
       0.012418061 -0.03999398 -0.050581977 -0.023111012
000100 1d eb 5c 3c 0e e8 73 3d 39 47 27 3d c4 d2 c5 3d
       0.01348379 0.059547476 0.040839408 0.09659341
000110 09 bd 38 bb 98 59 a1 3c dd 84 38 bc b1 ab 53 3d
       -0.0028188846 0.019696042 -0.011262146 0.05167741
000120 1e 2f c9 3c 32 09 91 bd d8 e5 ed bc 6b 0c 6a bc
       0.0245586 -0.07081832 -0.029040262 -0.014285187
000130 46 93 cc bd 8f d0 4e bd 82 f5 35 3d 21 59 a2 bc
       -0.09989028 -0.050491866 0.044423588 -0.01981789
000140 7b 77 77 3d ce c8 6b 3d f7 21 7c bd 4c 0e 8a 3c
       0.06041668 0.05756455 -0.06155583 0.01685252
000150 b2 58 30 3d f7 a3 35 bd ad 49 66 bc 8d 69 8e bb
       0.043053336 -0.044345822 -0.014055652 -0.0043460787
000160 57 5b a7 3d d1 8c 03 3d 6f cc 70 3c 29 af 3e 3d
       0.081717186 0.032116715 0.014697178 0.046553764
000170 c8 f1 d1 bd 29 d2 c2 bc 34 0f 26 3c e0 1b aa 3d
       -0.10251194 -0.023781853 0.010135461 0.08306098
000180 10 8d 07 be 54 c7 8b 3c fe 4c c8 3d 63 db 1a 3d
       -0.13237405 0.01706282 0.0978031 0.03780688
000190 23 2f e2 3c 71 bb b6 bd b6 bc f0 3d 07 ca 10 3d
       0.027610367 -0.0892247 0.11754744 0.03534892
0001a0 a1 2a 27 3d 9b 59 1d 3b 60 92 47 3d 11 25 f2 bc
       0.04081214 0.0024009708 0.04872358 -0.02955869
0001b0 d3 73 be 3d 3d 7e 4d 3d c4 df 6b 3d fa e4 0d be
       0.092994355 0.05016922 0.057586446 -0.13856879
0001c0 af 9c 43 3e 57 ec 8f bd 4b 68 6e 3c 7a b4 57 3c
       0.19102739 -0.070275 0.014551233 0.013165588
0001d0 90 1e 4f 3d 06 bd e0 3d 97 a6 8b bd 22 de 09 bd
       0.050566256 0.10973553 -0.06818884 -0.033659108
0001e0 c5 8f 19 3e c9 dd 0c be e0 d4 45 3e 9f 4d 09 bd
       0.1499625 -0.1375648 0.19319487 -0.03352129
0001f0 35 5b 77 3d fd 42 27 3e 59 6e 2c 3c 08 d8 18 3e
       0.060389716 0.16334148 0.010524356 0.1492616
000200 5c f9 84 3d 86 12 9b 3b fb ff 9c bd d3 f5 ed bd
       0.06492874 0.004732433 -0.07666012 -0.11619153
000210 21 0c 0d bb 57 14 7c 3d 5b 8d ae b8 a8 8f 54 3d
       -0.0021522122 0.061542835 -8.323296e-05 0.051894814
000220 6a a2 41 3e d1 f5 28 3e bc 56 9c 3d 8f de c0 3d
       0.18909612 0.16500022 0.07633731 0.0941745
000230 68 9e 9d 3d 19 d1 16 3e b2 5c c7 bd 4c 7b 0c 3e
       0.07696229 0.14728202 -0.09734477 0.13718909
000240 5c ba 87 3d f5 cd d2 3d 0d 21 8e 3d fb 12 00 3e
       0.06627342 0.102931894 0.06939898 0.1250724
000250 2f 70 9e 3d 1f a7 04 bb 57 7f 1d bb d8 3b d1 3d
       0.07736241 -0.0020241213 -0.00240322 0.102164924
000260 f7 39 1b 3e 41 fb cd 3b 26 75 0b 3e 17 03 0f be
       0.1515883 0.0062860553 0.13618907 -0.13966022
000270 58 6a cc 3d f8 78 20 3d 4e 2f 9d bc 4b 29 b1 3d
       0.09981221 0.039177865 -0.019187596 0.08650454
000280 fc 40 a6 bd 92 4e ff bc 76 6f 32 bd 2f 5c a8 bd
       -0.081178635 -0.031165395 -0.04356333 -0.082207076
000290 5c a4 f0 bb 76 61 09 bd 9c 0f 11 be f6 1f 43 be
       -0.007343812 -0.03354021 -0.14166111 -0.19055161
0002a0 78 53 02 3d 91 8e 77 bc 69 c5 c7 bb bd d9 4d bd
       0.031817883 -0.015109674 -0.006096531 -0.05025648
0002b0 f1 ae 66 3d df b4 1d 3b d0 93 e9 3c 4a ec 6c 3d
       0.05631918 0.0024064106 0.028512865 0.05784253
0002c0 d7 8d 50 bd 25 6f 38 3e ad f6 ce bd 1e b6 84 3d
       -0.05091652 0.18011148 -0.101056434 0.064800486
0002d0 a6 92 80 3d 80 a6 b1 bd 07 11 f0 3d e8 f0 af bd
       0.06277971 -0.086743355 0.11721998 -0.08590871
0002e0 5c 7c e8 3d 9c 7d 27 3c 78 6f 5c 3d 00 02 94 3d
       0.11351845 0.010222819 0.053817242 0.07226944
0002f0 84 10 79 3d 9a e9 db 3b 4b 29 29 3d a7 93 63 bc
       0.060806766 0.006711197 0.041299146 -0.0138901835
000300 11 c3 b7 3d 95 b4 a8 bc 11 98 73 3d 41 67 82 3d
       0.08972753 -0.02059392 0.059471194 0.0636735
000310 5c d7 3d 3d d1 73 2d 3e 53 33 b8 bc 2a 65 aa bc
       0.04634796 0.16938712 -0.02248541 -0.020800192
000320 66 db 5b bd c7 67 95 bc 81 7a f6 bc c8 59 ff bc
       -0.05367603 -0.018237961 -0.030087711 -0.03117074
000330 0a ce 8b bb 47 70 7f 3d cf 81 86 bc 95 96 7a 3c
       -0.004266505 0.062362935 -0.01641932 0.015294691
000340 8e 0c 67 bd 5f 18 df 3c db ed 8f 3c 98 09 e3 bb
       -0.056408457 0.0272333 0.017569473 -0.006928634
000350 31 f0 04 bd fa 5f 8b 3d 0e 5c 0f bc 9b 11 ff 3a
       -0.032455627 0.068054155 -0.008749975 0.0019460203
000360 3f 7f ae 3d 96 0b 38 3d b1 48 6a bd e9 bf 03 3d
       0.08520364 0.044932924 -0.05719823 0.03216544
000370 35 ef 87 3c a6 00 6c 3d 19 dd 01 3d 32 38 db 3c
       0.016593555 0.057617806 0.031704996 0.026760194
000380 d7 11 32 3d 55 df 50 3d 55 58 06 3d 7a 53 36 3d
       0.043474045 0.050994236 0.032799084 0.044513203
000390 44 d5 18 3d d0 4b db 3d 31 f7 94 3b c6 db 6d 3d
       0.03731276 0.107078195 0.004546069 0.05807092
0003a0 15 5d a2 3c 83 9d db bc af b2 be 3c 97 7c 44 3d
       0.019819776 -0.026808506 0.023278562 0.04797038
0003b0 1d 64 1b bd 3a 73 cd bd 1c 85 c1 bc fd 10 4d 3d
       -0.037937272 -0.10031743 -0.023623042 0.05006503
0003c0 b8 0b 1a 39 be fb d0 bb 2d b3 06 3e 40 5e 8e 3d
       0.0001469095 -0.0063776663 0.13154288 0.069515705
0003d0 f0 58 ac 3d 83 96 97 3d e3 50 b6 bc 14 f1 d8 3d
       0.08415401 0.07401755 -0.022255367 0.10592857
0003e0 da 8b 8c bd 02 5a 3f bd 3a 69 b2 3c 00 7b 88 3d
       -0.06862612 -0.046716698 0.021778692 0.066640854
0003f0 fa a6 0a 3e 5d 1e 11 be cf 2c 30 3d 88 48 52 3e
       0.13540259 -0.14171739 0.043011483 0.20535481

conv3.bias f4 [32]
000000 46 61 ce bc 5e e9 a6 3c 16 30 3c 3b 06 71 e5 bc
       -0.025192868 0.02037495 0.0028715185 -0.028007995
000010 09 df a2 3c 78 cc 9d bc 50 04 01 3c 8f a3 06 3d
       0.019881742 -0.019262537 0.007874563 0.032870825
000020 ab ca 7c 3c d0 60 ab 3c 74 9b 6d 3c 82 7e ec 3c
       0.015429179 0.020920187 0.014502395 0.028868917
000030 ec 45 ac 3c 55 75 b2 bc c0 86 80 3c 58 60 fb 3b
       0.021029435 -0.021784464 0.015689254 0.007671397
000040 9d 4d 16 3b e1 f3 c3 3b f1 40 2a bc 94 84 7a 3c
       0.0022934445 0.0059800004 -0.01039146 0.015290398
000050 40 9b e4 bc 44 3a e7 3c 14 65 94 3c 51 a5 98 3c
       -0.02790606 0.028226025 0.018114604 0.018633517
000060 52 5c 7f 3b 81 af ca 3c 38 47 93 3c 6a a0 60 bc
       0.003896494 0.02474189 0.017978296 -0.013710121
000070 09 f5 4c bb b2 2f 7d 3c bc 81 05 bd d5 8a 85 3c
       -0.0031273982 0.015453266 -0.032594427 0.016301552

bn3.weight f4 [32]
000000 37 cb ee 3f 75 ec b6 3c e8 40 be 3e 34 5d 32 40
       1.8655766 0.022329548 0.37158895 2.7869387
000010 54 03 03 3f 0d 37 03 3f 82 17 1b 3e cf 84 68 3f
       0.51176953 0.51255876 0.15145686 0.9082765
000020 74 f6 06 40 70 d5 0e 3f b2 6c 24 3f c7 60 1f 3e
       2.1087923 0.5579443 0.64228356 0.15564261
000030 ab 53 20 3f b9 39 ea 3d 6c 4e 26 3f 10 eb 7c 3f
       0.6262767 0.11436791 0.6496341 0.98796177
000040 ac c7 01 3f ce fb 72 3f cd a5 ee 3f ff 8b 3a 3f
       0.506953 0.94915473 1.8644348 0.7286987
000050 dd 3f 38 3f 78 68 2e 3f 54 68 a1 3f 8f 21 32 3f
       0.7197245 0.68128157 1.2609963 0.69582456
000060 5c c6 28 3f 6b c9 e0 3e 35 ce b0 3e 8c 2e 28 3f
       0.6592767 0.4390367 0.34532323 0.65696025
000070 7a a4 79 3e c8 8c 49 3f 58 cd 28 3e c9 67 42 3f
       0.24379149 0.7873044 0.16484582 0.75939614

bn3.bias f4 [32]
000000 53 9f 8e bf 59 96 dc bc 08 63 98 bd c7 e6 a7 bf
       -1.1142372 -0.02692716 -0.07440764 -1.3117303
000010 ae 0d 43 be 8b 7f 6b bd 49 a0 97 bc d0 7f d7 be
       -0.19048187 -0.05749468 -0.018509047 -0.420897
000020 73 11 84 bf ea b7 97 3a 8e f5 16 be e9 8b 54 3c
       -1.0317825 0.0011575196 -0.14742109 0.01297281
000030 04 e6 3e be 3d b0 7d bc d6 7b 21 be cd 9f e2 be
       -0.18642431 -0.015483913 -0.15769896 -0.44262543
000040 67 10 f7 bd fa a0 c7 be 06 0e c5 bf 9a 2e 81 be
       -0.120636754 -0.38990003 -1.5394905 -0.25230867
000050 57 21 80 be 5c 9c 9c be 79 45 2b 40 35 3d 0a be
       -0.25025436 -0.30588043 2.6761153 -0.13499911
000060 d5 73 00 be 6e 62 97 bd a1 0b 86 bd fa 07 0c be
       -0.12544186 -0.07391821 -0.06545187 -0.13674918
000070 5c 35 d1 bc c2 59 bf bd 07 3b 85 bc 1a ba 81 be
       -0.025538139 -0.09343292 -0.016263498 -0.25337297

bn3.running_mean f4 [32]
000000 2f d1 95 3f 0c c9 07 3d 67 a1 b6 bd 6e 29 27 3e
       1.1704463 0.033150718 -0.08917504 0.16324398
000010 4b 90 eb be 23 e4 f1 be 66 58 c4 bd 54 34 80 3e
       -0.46008524 -0.47244367 -0.09587173 0.25039923
000020 24 7c 22 3f fe e1 0b 3e c3 ae e9 bd 1f e5 fd 3c
       0.63470674 0.13660428 -0.11410286 0.030993043
000030 6c b7 c6 3b bc 0d 14 be fc 78 71 3d ab 27 f0 3e
       0.006064346 -0.14458364 0.05895327 0.46905264
000040 0a ff 63 bd 21 38 a2 3e 0a 5f d0 3e 63 27 73 bd
       -0.055663146 0.31683448 0.4069751 -0.059363734
000050 69 65 e5 bc 8c 71 2d 3e 6c c7 4d be db 16 07 bf
       -0.028002458 0.16937846 -0.20095605 -0.5276925
000060 e9 78 c9 be c7 60 85 be 64 2b 23 bd f5 48 04 bf
       -0.3935006 -0.26050398 -0.039836302 -0.51673824
000070 78 14 b7 39 e1 de 30 bf fb 37 dc bd e5 b8 12 bd
       0.0003491973 -0.69090086 -0.10752865 -0.03582086

bn3.running_var f4 [32]
000000 a9 16 0a 3e f8 a1 41 3b f9 95 bc 3b 16 58 b4 3d
       0.13485207 0.0029546004 0.005755183 0.088058636
000010 d5 c0 6d 3c 3b a9 9e 3c b7 f5 56 3b ae cf bd 3c
       0.014511307 0.019367805 0.0032800266 0.023170318
000020 41 c0 a5 3d d3 de d6 3c 93 c5 5d 3c b5 6d 50 3b
       0.0809331 0.026229298 0.013535875 0.0031803672
000030 b6 8f 20 3c c5 45 98 3b c0 ae 69 3c c4 8e f7 3c
       0.009799888 0.004646989 0.014262855 0.030219443
000040 3d ef 08 3c 4c 98 0a 3d 46 c4 93 3d 70 45 4f 3c
       0.00835782 0.033836648 0.072151706 0.0126508325
000050 61 e8 80 3c 22 3e 9c 3c 3f 22 10 3f ea 52 0d 3d
       0.015735807 0.019072596 0.56302255 0.0345029
000060 75 1a a4 3c aa 88 d5 3c c4 55 3e 3c 10 0a 80 3c
       0.020032147 0.026066143 0.011617128 0.015629798
000070 07 eb cc 3b f2 91 93 3d b6 96 b6 3b 72 07 8b 3c
       0.0062536034 0.07205571 0.0055721654 0.016971324

head.weight f4 [2, 512]
000000 4e 1a 17 3d ec 6c 2d bd 88 8c 05 be 6a 8e 99 3e
       0.03689032 -0.042340204 -0.1304189 0.29991466
000010 ee 4b 7e bf c7 22 08 3e 01 5e e4 bc d5 d7 f9 bd
       -0.9933461 0.13294517 -0.027876856 -0.1219937
000020 c7 f5 99 bc eb 67 80 bd 62 b8 07 3e 3d 4b a5 3b
       -0.018793954 -0.06269821 0.1325393 0.0050443695
000030 ef e1 a1 3f 55 f6 71 3d e4 d7 12 bd 74 12 a6 3d
       1.2647074 0.05907281 -0.03585042 0.081089884
000040 68 64 89 bc 3c 56 c0 3c 93 de 20 3d c5 9c a9 bc
       -0.01677151 0.02347862 0.039274763 -0.020704636
000050 83 1f e6 3a 7c 79 28 3b 09 06 03 3c f1 81 93 bc
       0.0017556999 0.0025707176 0.007997044 -0.018006297
000060 95 a8 85 bc 5a cf b8 38 40 0a 36 3d 19 9b ed 3b
       -0.016315738 8.812426e-05 0.04444337 0.007251155
000070 65 9a 89 3b 84 87 2d bc 10 24 30 bc 4b 63 80 3b
       0.0041993135 -0.0105913915 -0.0107507855 0.0039180866
000080 f4 e4 c7 3c 4b 05 06 3c 44 02 18 bd ff 5d 89 bd
       0.024401166 0.008179973 -0.037111536 -0.067073815
000090 cd 40 26 3e ad 0f 9e bd 9a 4a a4 bc 5e 5b 97 ba
       0.16235657 -0.07717834 -0.020055104 -0.0011547615
0000a0 ad bc 09 bd 9e 08 48 bd fa 84 80 3d 05 46 3f bd
       -0.0336272 -0.048836343 0.06275363 -0.046697635
0000b0 6b 83 6f bd e8 f9 af 3d d6 92 3f 3d e4 f5 ef 3b
       -0.05847494 0.08592588 0.046770893 0.0073230136
0000c0 c0 ac f5 3c e1 4a 72 3d c1 08 7a 3d 8d 5d 6d 3d
       0.0299896 0.05915344 0.061043505 0.057950545
0000d0 5f ea d1 3b 42 f8 10 bf 85 29 e4 3d 83 61 6f 3d
       0.006406113 -0.5662881 0.11140732 0.058442604
0000e0 c0 1d 96 bc 1c be 05 bc 57 ab 47 3d e3 69 15 c0
       -0.018324733 -0.008163001 0.048747387 -2.3345878
0000f0 4a d6 d7 3c 08 a3 44 3e eb e2 13 bf 72 e8 2c 3e
       0.026347298 0.19202816 -0.57768124 0.16885546
000100 5f 82 2a bc 08 a9 1f bd 85 fe 26 be b3 e9 f3 bd
       -0.010407059 -0.03897956 -0.16308029 -0.11909809
000110 c1 8d 9e bd b5 28 9a bc cd 48 3e 3d 92 29 93 3c
       -0.07741881 -0.018818239 0.046456147 0.017964158
000120 cc f8 ea bc 9d 1f bc 3c 35 5b c1 3d 82 20 0c 3d
       -0.028683089 0.022964293 0.094412245 0.03421069
000130 fe 86 f7 39 85 94 6f 3d 77 81 93 3d 66 48 ac 3c
       0.00047212088 0.05849125 0.07202428 0.021030616
000140 c2 07 42 bd 69 89 e1 3c e9 8f a0 3d 92 a6 87 bd
       -0.04737068 0.027531343 0.07839949 -0.06623568
000150 68 17 bb 3d 05 c0 04 be 36 e8 1b bb 44 46 32 bd
       0.09135324 -0.12963875 -0.0023789532 -0.04352404
000160 d1 b9 2b bd 26 88 ca 3c d1 19 28 3d 76 60 5e 3e
       -0.041925255 0.024723124 0.041040245 0.21716484
000170 2f 21 d7 3d b2 ea 3f 3e 60 e0 67 3e 8b 03 4c 3d
       0.10504376 0.18741873 0.22644186 0.049808066
000180 19 7a 82 3b 89 cc 30 bd 46 c4 a0 3c 81 c2 ca 3c
       0.0039818403 -0.04316381 0.01962484 0.02475095
000190 97 dc fa 3d 2d 27 0c 3d bd c3 1f 3b 57 bf 05 3c
       0.122491054 0.03421705 0.0024378144 0.008163295
0001a0 7a 62 03 bd b3 88 19 3d 7e ed 62 3d 60 29 ec bc
       -0.032076336 0.037483882 0.05540227 -0.028828323
0001b0 7a 86 10 3c 90 be 08 bb c3 14 9d 3c 19 8b 41 bc
       0.008821124 -0.0020865537 0.019174939 -0.011812949
0001c0 9e 50 dd 3c bd 51 1e bd d8 3a ca bc a4 3f a1 3d
       0.02701598 -0.03865217 -0.024686262 0.078734666
0001d0 0c 1e d6 bd ff 14 09 3d 3a a6 11 3e 08 81 b7 bd
       -0.1045495 0.03346729 0.14223567 -0.08960158
0001e0 f6 39 72 bc 9d e4 37 bd e6 f6 40 3d 6a bf 0c 3e
       -0.014784327 -0.044895757 0.04711046 0.13744894
0001f0 87 ee 9b 3e b2 c7 bd bc f2 5c 8e 3d b0 1c 7a 3d
       0.3045542 -0.023166511 0.06951322 0.061062515
000200 af c7 bd bc 5a 72 08 3c c6 c5 c6 3d fa 44 06 3d
       -0.023166506 0.008328045 0.09705691 0.032780625
000210 de ed 0b 3f c3 75 22 3e 38 88 5b be 10 73 61 3d
       0.5465983 0.15865235 -0.21438682 0.055041373
000220 d4 77 40 3d 94 dd 5d bd 5b 9d 17 3e ca c7 d6 3d
       0.046989277 -0.05416639 0.1480612 0.104873255
000230 0b 00 ca bf 90 4a 30 3d dc 76 96 bc 33 55 19 3d
       -1.5781263 0.04303986 -0.018367223 0.037434768
000240 72 0f 20 3b 8e 1c 31 3b 7f 8e bc bd 3a c4 fb 3d
       0.0024423269 0.0027025077 -0.092068665 0.122932866
000250 ab d3 8e 3e 46 7c 24 3e e6 78 b3 3d aa 88 30 3d
       0.27895865 0.16063032 0.08763294 0.043099083
000260 e2 0c 34 bc b2 5d 24 bd e1 54 2d 3d 3f 91 e0 3d
       -0.0109894 -0.040128417 0.042317275 0.109652035
000270 16 53 46 3b f8 4d 8d 3c 6c bd 05 3e 69 ed 55 3c
       0.0030261925 0.017249092 0.1306054 0.013057091
000280 e2 10 df bb 8c f3 e8 3b d9 01 21 3d 8b 3c 82 3e
       -0.0068074325 0.007109111 0.039308403 0.25436816
000290 b3 1b 03 3c a4 74 89 3e 34 de 97 be 50 8a e3 3c
       0.0080022095 0.26846802 -0.29661715 0.027775913
0002a0 b1 10 31 3b dc f5 bf bc f0 44 fe 3d 60 62 3c 3c
       0.0027018005 -0.023432665 0.124154925 0.011498064
0002b0 27 79 3c bd 1f 52 2e 3e 0b fb a4 3d e6 8d 11 3e
       -0.046013977 0.17023514 0.08055695 0.14214286
0002c0 e1 92 14 bc 2e 04 35 bd 32 ec 0d 3d 53 2c ad 3c
       -0.009068222 -0.04419344 0.03464908 0.0211393
0002d0 b5 fe 73 bd f3 d4 0b 3d 58 cb 36 bd 66 9a e8 bc
       -0.05956908 0.03413863 -0.044627517 -0.028393935
0002e0 72 2f 09 bd d9 05 14 3b f4 3d 0c 3d 13 ab 2c bd
       -0.033492513 0.0022586493 0.03423877 -0.042155337
0002f0 b5 f6 34 3d d8 83 b5 3d 68 89 bc 3c 45 b8 85 3d
       0.04418059 0.08863038 0.02301474 0.06529287
000300 cd fa 3e bd 2d 68 d9 3c 46 a6 df 3d 35 5d d1 bd
       -0.0466259 0.026538933 0.10920386 -0.10222856
000310 61 48 f6 3d fb 46 3a 3e a7 d4 c3 3c 6a 72 14 bd
       0.12025524 0.1819114 0.023905111 -0.036241926
000320 05 e5 1c bd fe 06 31 bd 45 44 1d bd 21 42 01 3e
       -0.038304348 -0.04321956 -0.038395185 0.12622882
000330 2d f5 60 be 1e 1f ed 3d 8b 55 5e 3d d1 30 9d 3d
       -0.21968527 0.11578201 0.0542808 0.076753266
000340 35 6e ab 3c e5 1b 0e bb c1 4c 22 bd 5f 56 ec 3c
       0.020926574 -0.0021684107 -0.03962398 0.028849779
000350 a0 c1 55 3d c4 3f 71 3d ce 6c 45 3d 2a 92 a4 3c
       0.05218661 0.058898702 0.048199467 0.020089228
000360 f1 30 39 3a 42 a4 03 bd ca 30 65 3c 09 bd 82 3b
       0.0007064483 -0.03213907 0.013988683 0.00398982
000370 a8 19 30 bd 86 05 6b ba 42 ee 2b 3d 26 fb 70 3c
       -0.042993218 -0.00089653616 0.041975267 0.014708316
000380 51 57 92 3b 87 c4 91 bc 53 9b 0f 3c a6 77 85 3c
       0.0044659753 -0.017793907 0.0087650595 0.016292404
000390 97 43 1e bf c1 0c 28 bc 42 f0 0f 3e 3a 6c ff bd
       -0.61821884 -0.010256947 0.14056495 -0.124718145
0003a0 81 f3 30 3c f9 08 22 3c 8f 47 3f bc 1e 71 69 3e
       0.010800243 0.009889835 -0.011674776 0.22797057
0003b0 dc 1e c6 bd 17 a3 0f 3e e0 63 ec 3d 3f 79 03 bc
       -0.09673855 0.14027058 0.11542487 -0.008024513
0003c0 bc 2a fa 3b b1 a7 75 bb 68 6c 10 be ce 51 40 bd
       0.007634489 -0.0037483985 -0.14103854 -0.046953015
0003d0 0f 81 15 3e 2a 11 90 be fc 0e ed 3d 8f 50 ca 3d
       0.14600013 -0.28138095 0.11575124 0.098786466
0003e0 77 c4 19 bd cd 34 ef bc 52 2a d8 bc 90 de eb 3e
       -0.03754088 -0.029199982 -0.026387367 0.4606824
0003f0 4e ce 27 be af d9 30 bf c6 cc d8 3d 2c 8f 85 3d
       -0.16387293 -0.6908216 0.105859324 0.065214485

head.bias f4 [2]
000000 80 f4 f4 40 c5 a1 e6 40
       7.654846 7.2072473
